saved_models/pendulum_actor_V2.pth (torch, 20605 bytes, 5 tensors)

l1.weight f4 [64, 3]
-0.038881894 -0.38470897 -0.008984115 0.22213863 -0.07475814 0.16251473 0.2371001 -1.0940664
-0.25554848 0.6227835 -0.026344659 0.33748844 -0.6186037 0.5561771 0.10472318 -0.62760913
0.8297032 0.16621311 -0.087829925 -0.95409435 -0.10526404 0.061363574 -0.32097456 -0.027657922
-0.2865769 -0.58018756 0.003900495 -0.38118157 0.6614665 0.08523176 -0.019654488 -0.31240392
0.17056745 -0.61908996 0.90695447 0.4654934 -0.6133571 -0.40993917 -0.2360601 -0.1317459
-0.31437528 0.11616097 -0.15307486 0.6400725 0.2143119 0.62316674 -0.56593186 -0.15878901
0.113303505 0.0140120555 -0.3376882 -0.63686055 0.1553525 -0.20968866 0.32532126 0.50104064
-0.46105683 -0.6125704 -0.21570157 0.3995541 0.21416984 -0.298395 0.39602247 0.032786064
-0.12938677 0.39617723 -0.33328053 -1.0922768 -0.2168262 0.6898762 0.44122034 0.5158333
0.6559212 0.6786048 0.2983292 -0.10596945 0.35045457 0.37666515 0.09828776 0.81333286
-0.4996032 0.07950697 0.7177406 -0.40794477 0.35086226 -0.17132472 0.41210413 0.31348968
-1.0218186 -0.12682006 -0.21852666 0.31916037 0.25885198 0.8209706 0.11361043 0.25782746
-0.5857671 0.28738385 -0.4034382 0.603341 -0.7779033 -0.34991422 -0.31023106 0.2457573
0.13008271 0.612081 0.56488776 0.3364378 -0.72686434 -0.077682756 -0.20195343 -0.21686822
-0.07969509 -0.41749305 0.14431766 -0.75042176 0.04220803 0.50814897 0.59524 0.20596632
-0.48417592 0.6543902 0.19161974 -0.2749428 0.82574755 0.37411463 -0.53634423 -0.6675251
-0.5607842 0.6609932 -0.029186584 -0.45327544 -0.28810835 -0.40538102 -0.557638 -0.583787
0.4558612 0.3159188 0.15881228 0.05910005 0.1447074 0.28835115 0.67692643 -0.3088214
-0.32190406 0.3733951 0.15256724 -0.47196174 -0.45062461 -0.507832 -0.48965123 0.33659068
0.25799057 0.03367152 0.8104767 0.55729014 -0.37184677 0.072164945 0.5267359 0.0047188075
-0.14945674 -0.5337711 0.5153325 -0.49156827 0.32978582 0.44479623 0.42329085 0.08248902
-0.16880701 -0.1497673 0.36227316 -0.40962872 -0.28726155 -0.12414461 0.63101804 0.15677783
-0.07841917 -0.41001874 -0.02104102 -0.26760644 -0.35746044 -0.47981757 -0.47905496 0.6705345
0.25259647 -0.45013976 0.6603001 -0.6075896 -0.4795668 -0.3882462 -0.33096203 -0.08422596
00000000: 9f42 1fbd 93f8 c4be 1c32 13bc 4f78 633e
00000010: cc1a 99bd 436a 263e 5eca 723e 5e0a 8cbf
00000020: 40d7 82be bd6e 1f3f c1d0 d7bc 49cb ac3e
00000030: d05c 1ebf 9f61 0e3f 1b79 d63d feaa 20bf
00000040: 6e67 543f c533 2a3e 2de0 b3bd 873f 74bf
00000050: ac94 d7bd 5f58 7b3d c756 a4be de92 e2bc
00000060: 35ba 92be 2c87 14bf 729f 7f3b 3b2a c3be
00000070: de55 293f fd8d ae3d 7302 a1bc 68f3 9fbe
00000080: 3ca9 2e3e ae7c 1ebf 2b2e 683f 2755 ee3e
00000090: f904 1dbf 8ce3 d1be bdb9 71be 66e8 06be
000000a0: ccf5 a0be cde5 ed3d a8bf 1cbe cbdb 233f
000000b0: 9474 5b3e db87 1f3f e9e0 10bf 9699 22be
000000c0: ab0b e83d d292 653c 78e5 acbe 4b09 23bf
000000d0: ba14 1f3e a0b8 56be 8290 a63e 3344 003f
000000e0: a40f ecbe 6ad1 1cbf dfe0 5cbe 5b92 cc3e
000000f0: 574f 5b3e 3bc7 98be 75c3 ca3e ae4a 063d
00000100: f77d 04be bed7 ca3e bfa3 aabe bacf 8bbf
00000110: b007 5ebe ba9b 303f a2e7 e13e a70d 043f
00000120: 74ea 273f 0bb9 2d3f 9bbe 983e 8306 d9bd
00000130: c86e b33e 41da c03e 184b c93d 9536 503f
00000140: fecb ffbe 8dd4 a23d d9bd 373f 23de d0be
00000150: 38a4 b33e bf6f 2fbe 50ff d23e b881 a03e
00000160: f4ca 82bf 1edd 01be 74c5 5fbe fd68 a33e
00000170: 3f88 843e 212b 523f 96ac e83d f601 843e
00000180: d5f4 15bf fa23 933e 748f cebe 8e74 1a3f
00000190: ac24 47bf f527 b3be 9bd6 9ebe cda7 7b3e
000001a0: 6734 053e 57b1 1c3f 7c9c 103f 9341 ac3e
000001b0: c813 3abf 2318 9fbd e1cc 4ebe b412 5ebe
000001c0: 2e37 a3bd a6c1 d5be 02c8 133e a41b 40bf
000001d0: 54e2 2c3d 0d16 023f a661 183f d6e8 523e
000001e0: e8e5 f7be 1e86 273f f737 443e 4dc5 8cbe
000001f0: 3164 533f f48b bf3e db4d 09bf ede2 2abf
00000200: 8e8f 0fbf da36 293f b418 efbc b813 e8be
00000210: f082 93be 1a8e cfbe 5dc1 0ebf 1173 15bf
00000220: a466 e93e 1cc0 a13e b09f 223e e512 723d
00000230: 2d2e 143e c3a2 933e 0d4b 2d3f d71d 9ebe
00000240: 9cd0 a4be a42d bf3e 963a 1c3e f8a4 f1be
00000250: 45b8 e6be 4701 02bf 91b3 fabe 9d55 ac3e
00000260: 5717 843e 26eb 093d 677b 4f3f 91aa 0e3f
00000270: b362 bebe 37cb 933d 2ad8 063f 3aa0 9a3b
00000280: 300b 19be 39a5 08bf d5ec 033f d6ae fbbe
00000290: b0d9 a83e 55bc e33e 94b9 d83e 01f0 a83d
000002a0: bfdb 2cbe 995c 19be de7b b93e dbba d1be
000002b0: f213 93be 873f febd 668a 213f 5e8a 203e
000002c0: 3b9a a0bd faed d1be 385e acbc b603 89be
000002d0: 0e05 b7be a6aa f5be b146 f5be 26a8 2b3f
000002e0: 5354 813e b878 e6be 6d09 293f fe8a 1bbf
000002f0: c889 f5be 35c8 c6be db73 a9be a97e acbd

l1.bias f4 [64]
-0.45111695 0.33794588 0.41148648 -0.2679837 -0.40247992 0.43714073 0.57453233 -0.49825668
-0.06963576 0.0011314023 0.49934784 0.29670694 0.25138015 0.47785497 0.62738824 0.41176516
-0.57035774 -0.37168738 -0.29904044 -0.47250876 -0.028964473 -0.05018399 0.65529436 0.11003064
-0.17589748 0.281644 0.15361571 0.2112865 0.27133384 -0.05571847 0.061907373 0.4795164
0.29460272 -0.09806504 0.06658294 0.38234347 0.25765905 0.47467086 0.15870856 -0.09874635
0.61808264 0.48203656 -0.029436182 -0.2139894 0.15192305 -0.36335415 -0.47971347 -0.24637969
0.09440672 -0.26077548 0.36939985 0.25639698 0.28154618 -0.6522087 -0.4785773 -0.30334052
0.5534663 -0.17182843 0.49047065 0.6067216 -0.2466358 0.11454148 -0.055381544 0.455903
00000000: cdf8 e6be 3e07 ad3e 5bae d23e 2935 89be
00000010: d911 cebe e9d0 df3e 8d14 133f 801b ffbe
00000020: 319d 8ebd 904b 943a 85aa ff3e f9e9 973e
00000030: e6b4 803e 68a9 f43e 849c 203f e2d2 d23e
00000040: f702 12bf cf4d bebe d41b 99be abec f1be
00000050: e746 edbc ba8d 4dbd 5fc1 273f bf57 e13d
00000060: 781e 34be a433 903e 704d 1d3e 7d5b 583e
00000070: 45ec 8a3e 0d39 64bd 9692 7d3d 2c83 f53e
00000080: 2bd6 963e 53d6 c8bd a35c 883d 86c2 c33e
00000090: e3eb 833e 0f08 f33e 7f84 223e 873b cabd
000000a0: aa3a 1e3f 7fcd f63e 2624 f1bc 0a20 5bbe
000000b0: b791 1b3e 8e09 babe 019d f5be f54a 7cbe
000000c0: 4f58 c13d 5d84 85be fa21 bd3e 7746 833e
000000d0: d226 903e 26f7 26bf 1508 f5be 734f 9bbe
000000e0: f8af 0d3f cbf3 2fbe f81e fb3e 1b52 1b3f
000000f0: 188e 7cbe b994 ea3d c2d7 62bd 1e6c e93e

l2.weight f4 [64, 64]
0.09260679 0.07943171 0.017876573 -0.3640426 -0.21166174 0.16470161 0.28221878 0.10326148
0.36938253 0.14202432 0.09532955 -0.20117529 0.20414303 0.11624976 -0.14329326 -0.011084143
-0.048690084 0.07642257 -0.05059987 -0.060129955 -0.12417954 -0.17789052 0.2359798 -0.25385627
-0.3662451 -0.1263559 0.072732225 0.018902717 -0.042698238 0.25290182 -0.20164646 -0.19801176
-0.039935887 -0.13306014 0.01279908 -0.44547588 0.08588328 0.04965496 0.18653512 -0.21546787
0.17702246 -0.10948058 0.17183426 -0.16765967 0.13598436 -0.2516834 0.11714 -0.1772721
-0.057899192 0.05700241 -0.12631032 -0.29716897 -0.11265568 0.036052223 -0.04828076 -0.036303997
-0.011178771 0.0634757 -0.15151952 0.11847092 0.13090749 -0.027228825 -0.11705515 0.09650261
0.06331995 -0.028418172 -0.039162178 0.015163871 0.0022494288 -0.035578385 0.13830727 0.085647225
-0.23082118 0.18715234 0.1865493 0.16892664 -0.00028792472 0.1493267 0.16673829 -0.00037708803
0.09915781 0.02705272 0.021498932 0.12418028 -0.053099044 0.112767234 -0.015689956 0.06134039
-0.1508593 0.11675376 -0.018544748 0.05018168 0.09396322 0.19958565 -0.021570925 0.057838127
-0.08006937 0.24159336 0.053252332 0.09163583 0.039924327 0.026166007 0.03265816 -0.13346525
-0.06992766 0.0028874266 -0.083425604 0.109462306 0.07215263 -0.062644735 -0.2514495 0.1773687
0.14739496 -0.14501035 0.11714382 -0.09618589 0.016012158 0.14943263 0.03240141 -0.13986291
0.13354659 -0.15638584 0.18178459 -0.111808084 -0.03344115 -0.009534037 0.23651332 -0.0031207385
-0.016261809 0.03813159 0.061041277 0.040405042 -0.1524945 0.119524956 0.14655724 -0.008207348
0.31997186 0.09641263 -0.09563392 -0.3227684 0.14171189 -0.08142079 0.06873591 -0.0003818766
-0.10050393 0.07841726 -0.0782901 -0.05563716 -0.14873728 -0.25995934 0.068313606 0.1498918
0.1734423 -0.0021695923 -0.06979316 0.08127679 -0.17910944 -0.11858254 -0.29282144 -0.09193764
0.08339062 -0.057553604 -0.21081306 0.03785111 0.1426639 0.13943283 -0.033664983 0.19834627
0.29569513 0.003898175 0.13228823 0.002692477 0.057065506 -0.42471468 -0.09905968 0.07866847
-0.26941293 0.019828614 -0.15011354 -0.031197008 -0.09053543 -0.08458407 -0.05865166 0.3583977
-0.1012883 0.17206 -0.06373979 -0.04700248 0.06122995 -0.08439319 -0.055436436 0.19825059
0.06850056 0.059602212 -0.17915165 0.081747815 -0.12129374 -0.079359174 -0.064956404 -0.07511872
0.02181671 -0.07905346 -0.016453777 0.028935874 0.079518855 0.09830484 0.10734439 -0.0007757053
0.008571333 0.08014815 0.10818476 0.015902612 0.06876963 0.0035614586 -0.28247786 0.1873871
0.14584915 -0.028328152 0.045406252 0.2551195 0.13002959 -0.49185005 -0.03980867 0.010220729
-0.070169926 -0.16952261 -0.17604098 0.18986937 -0.090788625 -0.069158256 -0.012380671 0.22208862
0.039268404 0.0708669 -0.08101719 0.08918671 -0.035266377 -0.055309244 0.054921333 0.20467691
-0.08029423 0.043623794 0.020080538 0.053886436 -0.08759114 -0.056072384 0.10807398 0.21792813
-0.103348754 0.1802638 0.1309102 0.17663825 -0.04465406 0.01680352 -0.18239813 -0.26478535
00000000: a1a8 bd3d 18ad a23d e471 923c cb63 babe
00000010: dbbd 58be 8aa7 283e fb7e 903e c17a d33d
00000020: b51f bd3e d36e 113e 243c c33d e500 4ebe
00000030: df0a 513e 5b14 ee3d 78bb 12be 449a 35bc
00000040: 416f 47bd 7083 9c3d cf41 4fbd d44a 76bd
00000050: d851 febd ef28 36be b0a4 713e 73f9 81be
00000060: 7a84 bbbe 7163 01be a2f4 943d dfd9 9a3c
00000070: 59e4 2ebd 597c 813e 697c 4ebe 98c3 4abe
00000080: d093 23bd eb40 08be 3cb3 513c 6a15 e4be
00000090: 93e3 af3d 0063 4b3d 1003 3f3e 9ca3 5cbe
000000a0: 6045 353e 5b37 e0bd 52f5 2f3e faae 2bbe
000000b0: 7c3f 0b3e a6dc 80be 19e7 ef3d d186 35be
000000c0: b427 6dbd 5c7b 693d 7e57 01be 8826 98be
000000d0: 05b8 e6bd 7fab 133d 0cc2 45bd 80b3 14bd
000000e0: 2a27 37bc 8cff 813d ef27 1bbe e2a0 f23d
000000f0: 9d0c 063e fc0e dfbc 9cba efbd 29a3 c53d
00000100: e4ad 813d 3acd e8bc 8568 20bd e371 783c
00000110: 276b 133b a4ba 11bd 6ca0 0d3e d067 af3d
00000120: 635c 6cbe dda4 3f3e c806 3f3e 1bfb 2c3e
00000130: 9af4 96b9 19e9 183e 71bd 2a3e e6b3 c5b9
00000140: 4013 cb3d aa9d dd3c 871e b03c 3b52 fe3d
00000150: 627e 59bd 82f2 e63d 3988 80bc 1040 7b3d
00000160: dc7a 1abe 981c ef3d 28eb 97bc 4e8b 4d3d
00000170: ca6f c03d 2e60 4c3e 82b5 b0bc ace7 6c3d
00000180: 69fb a3bd 4064 773e 1e1f 5a3d 91ab bb3d
00000190: b187 233d 185a d63c 90c4 053d 1dab 08be
000001a0: 3c36 8fbd fb3a 3d3b 0bdb aabd c62d e03d
000001b0: c2c4 933d e24b 80bd fdbd 80be 24a0 353e
000001c0: b4ee 163e 987d 14be 19e9 ef3d 1cfd c4bd
000001d0: ee2b 833c de04 193e 57b7 043d 3938 0fbe
000001e0: 70c0 083e 9c23 20be bd25 3a3e a3fb e4bd
000001f0: 96f9 08bd a634 1cbc 8c30 723e 4e85 4cbb
00000200: 7c37 85bc df2f 1c3d 6b06 7a3d c27f 253d
00000210: 8527 1cbe 80c9 f43d 1a13 163e 1d78 06bc
00000220: 5ad3 a33e fc73 c53d b7db c3bd e641 a5be
00000230: ec1c 113e f1bf a6bd 6ac5 8c3d 9c36 c8b9
00000240: 01d5 cdbd 3a99 a03d 8f56 a0bd cae3 63bd
00000250: 964e 18be 6419 85be 01e8 8b3d 3c7d 193e
00000260: dc9a 313e b82f 0ebb b7ef 8ebd 7274 a63d
00000270: 7768 37be 67db f2bd b1ec 95be cd49 bcbd
00000280: b4c8 aa3d 54bd 6bbd 61df 57be c409 1b3d
00000290: 7c16 123e 7bc7 0e3e 4be4 09bd 491b 4b3e
000002a0: 5a65 973e 8678 7f3b 9176 073e 4574 303b
000002b0: 85bd 693d 3474 d9be cddf cabd ef1c a13d
000002c0: 7ef0 89be 9e6f a23c 5db7 19be de90 ffbc
000002d0: a46a b9bd 6a3a adbd b93c 70bd e77f b73e
000002e0: 3d70 cfbd 7f30 303e 028a 82bd ac85 40bd
000002f0: 42cc 7a3d 56d6 acbd 5111 63bd 3402 4b3e
00000300: 064a 8c3d 7321 743d 8873 37be 666b a73d
00000310: da68 f8bd 1087 a2bd dd07 85bd d8d7 99bd
00000320: f5b8 b23c c8e6 a1bd 12ca 86bc ed0a ed3c
00000330: c8da a23d 0c54 c93d 60d7 db3d b458 4bba
00000340: c76e 0c3c b724 a43d f98f dd3d 3246 823c
00000350: 17d7 8c3d 5c67 693b f0a0 90be 67e2 3f3e
00000360: 7b59 153e 7110 e8bc e8fb 393d 069f 823e
00000370: 7a26 053e c5d3 fbbe 6a0e 23bd d874 273c
00000380: 40b5 8fbd 5697 2dbe 1644 34be 1e6d 423e
00000390: 63ef b9bd d8a2 8dbd 4cd8 4abc 336b 633e
000003a0: e8d7 203d aa22 913d 57ec a5bd 86a7 b63d
000003b0: 7a73 10bd f28b 62bd 31f5 603d d396 513e
000003c0: 4d71 a4bd ddae 323d f17f a43c 06b8 5c3d
000003d0: fc62 b3bd 28ac 65bd e455 dd3d 8d28 5f3e
000003e0: 83a8 d3bd 1397 383e 530d 063e a8e0 343e
000003f0: 2de7 36bd 89a7 893c 93c6 3abe f291 87be

l2.bias f4 [64]
0.13758714 0.058256313 0.19593932 -0.06891641 -0.030022064 -0.07751121 0.03153654 0.058206514
0.10990127 0.059275102 0.025411375 -0.02634788 0.21317638 -0.040148992 -0.040898215 0.12793233
-0.09390442 0.08629428 0.024944348 -0.025207188 0.0011555258 -0.036627606 0.13009247 0.05954603
-0.04007331 0.13587224 0.07594902 0.07852576 0.25562775 -0.07880114 -0.07162265 0.018152645
0.11301387 0.0054149916 0.13424794 0.14600429 0.041971758 0.062258378 0.13788688 0.10853174
-0.121505536 0.051724017 0.08165658 0.2089964 0.07537422 0.063462146 0.106376946 0.11565943
-0.05185051 -0.09930314 -0.117866755 0.08155891 -0.0397561 0.1637127 0.1010076 0.03753914
0.18547206 0.11949515 0.033311177 0.0051111816 0.17880479 -0.024417084 0.11146778 0.08457893
00000000: a5e3 0c3e 2c9e 6e3d 51a4 483e 0c24 8dbd
00000010: d5f0 f5bc 33be 9ebd 752c 013d f469 6e3d
00000020: eb13 e13d 73ca 723d 842b d03c 82d7 d7bc
00000030: e94a 5a3e 4573 24bd e384 27bd b100 033e
00000040: f650 c0bd 0ebb b03d 1758 cc3c 4e7f cebc
00000050: 0375 973a d406 16bd f636 053e 8ae6 733d
00000060: e923 24bd 1822 0b3e 298b 9b3d 1dd2 a03d
00000070: a4e1 823e 7e62 a1bd e5ae 92bd dbb4 943c
00000080: d173 e73d 3e70 b13b 4b78 093e 2682 153e
00000090: 94ea 2b3d a402 7f3d 3832 0d3e e445 de3d
000000a0: e5d7 f8bd 90dc 533d 913b a73d 2703 563e
000000b0: cd5d 9a3d 71f8 813d 28dc d93d dade ec3d
000000c0: 3361 54bd 725f cbbd 2064 f1bd 5c08 a73d
000000d0: 4bd7 22bd 4da4 273e 13dd ce3d a4c2 193d
000000e0: 63ec 3d3e e0b9 f43d 4d71 083d b37b a73b
000000f0: 9a18 373e 5606 c8bc 3849 e43d b837 ad3d

l3.weight f4 [1, 64]
-0.18236604 0.1216912 -0.122382954 -0.24817866 -0.04092528 -0.26158038 0.13382916 -0.2876844
-0.25416684 -0.08711635 -0.29338583 -0.22875673 0.26126266 -0.13676032 -0.18002623 0.25313166
-0.10173653 -0.25411934 0.23336636 0.4312322 0.2571152 -0.08547263 -0.46477425 -0.30389726
0.12592936 -0.20474958 0.15261811 0.2432768 0.2438117 -0.15526825 -0.12003873 -0.3872736
0.25748602 -0.15548135 -0.3688748 0.16798353 -0.13824888 0.1869377 -0.16710763 -0.262113
0.27227613 -0.12137213 -0.1719938 0.15273975 -0.14643687 0.13561814 -0.23260576 -0.17390734
0.20573112 0.010117948 0.090763845 0.20127034 -0.40393364 -0.263589 -0.14514059 0.3196236
-0.1436841 -0.2731965 0.2056441 0.013389087 0.22097534 -0.06917548 -0.10987187 0.08583591
00000000: 2abe 3abe 3c39 f93d eaa3 fabd 8c22 7ebe
00000010: 44a1 27bd dded 85be 830a 093e 5f4b 93be
00000020: 2822 82be 0f6a b2bd ab36 96be 343f 6abe
00000030: 38c4 853e e60a 0cbe cc58 38be 799a 813e
00000040: 3e5b d0bd ee1b 82be 97f7 6e3e 78ca dc3e
00000050: 9aa4 833e 460c afbd e4f6 edbe 6c98 9bbe
00000060: a0f3 003e e0a9 51be ec47 1c3e 8e1d 793e
00000070: c6a9 793e a4fe 1ebe ded6 f5bd ba48 c6be
00000080: 35d5 833e 8136 1fbe 28dd bcbe e003 2c3e
00000090: 1d91 0dbe 996c 3f3e 431e 2bbe ad33 86be
000000a0: c767 8b3e f491 f8bd 251f 30be cf67 1c3e
000000b0: 8cf3 15be 7bdf 0a3e 3430 6ebe c414 32be
000000c0: 2eab 523e c0c5 253c 65e2 b93d d019 4e3e
000000d0: 64d0 cebe 23f5 86be bc9f 14be b4a5 a33e
000000e0: ed21 13be 69e0 8bbe 5e94 523e e75d 5b3c
000000f0: 5c47 623e e0ab 8dbd 8104 e1bd bdca af3d
