models/acrobot_qnet-1000.pth (torch, 43237 bytes, 10 tensors)

l1.weight f4 [128, 6]
00000000: 1978 06bf dcee c2be f09d e03f f02d 11bb
00000010: 0c0d 293f 0565 a93e 10f9 febe 001c 33bf
00000020: 79a1 84be 3043 b73d 6ef0 173c c534 1a3c
00000030: cd15 0f40 ac0f eb3f d3bc 0abf 56ed 1040
00000040: ea73 853e c0bc 6ebe ace3 56bf 5820 423e
00000050: d56a e83e 78ce 433e ace6 093e 6029 843d
00000060: 3429 82bf 8af4 9b3d 37fa adbd bdae 4e3d
00000070: 0057 b23c f6bd 94bb 58e4 dabc 98e5 82bc
00000080: de1a 033e c675 4cbc 7d54 523d 7723 293b
00000090: a685 46c0 c7ad 89c0 1403 fe3f c1c6 883f
000000a0: c9e1 643e b280 c7be dc0e b5bf 08dc 8cbd
000000b0: 6408 553d 719d 313f fa3f 61bf ec6e bdbd
000000c0: fc3f 3abf 82ef 45bc 5716 443d db9b 3ebe
000000d0: 7613 b33d 38ac 4a3c 1b34 2dbf 1de6 f93d
000000e0: c2b3 6fbe ac5d 1abe caca b2bd 1862 babb
000000f0: 1a38 8cbf dcd7 f9bc 7741 743e 4882 c13d
00000100: 0853 a3be 33c0 53be 4626 99bf 847f 63be
00000110: 22ca a5bd 9ffd 143f 877d f73e a7a6 23be
00000120: bfdc 07bf b660 693e affa 68bf 7bfd 103f
00000130: bb45 f4bc bbd8 8abe 95ab 20bf 58eb ed3e
00000140: 4ccb 7a3d 6703 0e3f c5e8 143f d7da 443e
00000150: 89d2 7140 9815 f0bf afd1 1240 b831 44bf
00000160: f0cd 663f 630f eb3c 5d8b 353e afb6 a6c0
00000170: 5075 ba3f 90d0 5fbe 2892 35be 1ac4 37bf
00000180: 08b5 b6bf f753 2fbf 2e94 143f 7e28 3dbe
00000190: a496 d33e d116 4dbd cb06 1640 1bca 043e
000001a0: 6d91 1340 2d1b 41bf 9d19 dbbe f75d af3e
000001b0: 3f41 38bf eb4e 17bf 095f 0dbf 762b 333f
000001c0: 332d 0a3d a072 d6bd 43dc 3bc0 95c2 4b3f
000001d0: 7780 1e3f e5b3 3440 f3ba 9f3e 3bd6 ee3e
000001e0: 9c33 5cb8 ad6a 7b3e d8e6 b43d c63a 0d3f
000001f0: 1414 ed3e 4fe3 243e 26bf c1bf 3274 ac3e
00000200: f1b6 0d3f 8360 36be f63c fe3d e922 29bc
00000210: 93b5 6ec0 a4bf 593f b69a 72bd 6b47 d33f
00000220: b238 42bf ef37 22bf 6cde 883f cb47 8fbe
00000230: f304 f03f 4ac9 c63f cb0a 9340 3d5d f13f
00000240: efe6 b23f 60c3 8ec0 80c6 9ebf 6d7c dc3f
00000250: f8fb c93f b69c 0abf 868b 70b8 dc7c 03bf
00000260: 7b9f a640 5184 9d3f 16ee 1cc0 f1e1 cabf
00000270: 4745 6abf 772d fabe 65a9 fabf 0d81 dbbf
00000280: 08b3 233e 0f6d 40be 207e 9dbe 83ed 043e
00000290: 2db0 37be 092b d03d 3b9c 41bd 57e7 45bd
000002a0: 13b4 1fc0 0eb3 2940 57b3 c8bf 2218 e1bf
000002b0: c80f 273f c01c 3840 fa3f 8abf cada 6bbf
000002c0: 513f ce3e 7299 6b3e 8b4e d03d 8811 26be
000002d0: 2ccf 57bf e360 b73e b930 7b3e db6b 513e
000002e0: b951 94bd b4ad 12bd 4429 7cbd ba3e 9abe
000002f0: b982 0bbe 02df e9be 1c4e 23bd 279e e4bb
00000300: 2848 4ebf c95a 84bf f1b3 4e3e 90ec bfbe
00000310: 1329 bdbd afd3 97bd 01e3 a5bf 1400 ecbe
00000320: 04b9 d73d 67f5 f5be 6690 2dbd 9c74 b9bd
00000330: d95d 69bf 9dad 50bf c700 f43e 7a3b 0cbe
00000340: e834 a13d 4073 5c3d a1d5 a8bf 7bce 1f3f
00000350: cd5d 48be d87c 973e 1bdb 44bf e155 be3d
00000360: 4176 823f c44a 84bf 7c64 80bf d61d 96be
00000370: 940a d6be 38a3 ebbe bce9 02bf e3c8 19bf
00000380: 001c d83e 8a32 78be 1582 d53d 0c05 4e3d
00000390: e173 0ebf 7508 a8bc ee47 9040 fe56 98be
000003a0: f3a6 9bbe 2940 b5bc b931 2140 c580 2fc0
000003b0: 12ba 6f3f 25ac 7040 645f 1cbf cb29 2dbf
000003c0: f077 14c0 e2c4 0f40 f51d 813f ab27 14c0
000003d0: 2535 c8be ffb5 d6be 3473 0640 11ef d33f
000003e0: 85ea 87bf 88cf d8bf 55b1 4d3d aa16 81bd
000003f0: 7b7a 8abe 545c 943e d570 d4be 7a05 34be
-0.52527004 -0.3807286 1.7548199 -0.0022152625 0.6603553 0.33084884 -0.49799395 -0.699646
-0.25904444 0.08948362 0.0092736315 0.009411995 2.2357056 1.8364158 -0.5419437 2.2644858
0.26064998 -0.2331419 -0.8394115 0.1895765 0.45394006 0.1912173 0.134669 0.06453204
-1.0168824 0.076150015 -0.0849499 0.050459612 0.02177 -0.0045392467 -0.02672021 -0.01597862
0.12803218 -0.012479251 0.051350106 0.0025808492 -3.1019073 -4.302463 1.9844689 1.0685655
0.22351755 -0.38965374 -1.414516 -0.06877905 0.052009955 0.6938086 -0.87988245 -0.09249672
-0.7275388 -0.012081029 0.047872867 -0.18614142 0.08743946 0.012370162 -0.6765763 0.12202094
-0.23408416 -0.15074795 -0.08730085 -0.005687963 -1.0954621 -0.030498438 0.23853098 0.09448677
-0.31899285 -0.20678787 -1.1964805 -0.22216612 -0.080951944 0.58199495 0.48337957 -0.15981542
-0.53071207 0.22790799 -0.9100751 0.5663678 -0.029818406 -0.27118477 -0.62761813 0.46468616
0.061229035 0.5547394 0.5816768 0.19224106 3.778475 -1.875659 2.294048 -0.76638365
0.90157986 0.02869386 0.17728944 -5.2098002 1.4567051 -0.21856904 -0.17731535 -0.717836
-1.4273996 -0.68487495 0.58038604 -0.18472478 0.41325867 -0.050070588 2.3441646 0.12967722
2.305751 -0.7543209 -0.4279298 0.34251377 -0.7197456 -0.59104794 -0.5522314 0.6998819
0.03373451 -0.10471082 -2.9353187 0.79593784 0.6191477 2.82348 0.31197318 0.4664782
-5.2500152e-05 0.24552412 0.088330925 0.55167806 0.4630438 0.16102336 -1.5136459 0.336824
0.5535727 -0.17810254 0.12413971 -0.010323265 -3.7298324 0.85058045 -0.059229575 1.650617
-0.7586776 -0.633666 1.0692878 -0.2798446 1.875151 1.5530179 4.5950675 1.8856579
1.3976725 -4.4613495 -1.2404327 1.7225472 1.578002 -0.5414537 -5.73504e-05 -0.51362395
5.206968 1.2306005 -2.4520316 -1.5850202 -0.9151196 -0.48862812 -1.9582945 -1.7148758
0.15986264 -0.18791603 -0.30760288 0.12981229 -0.179383 0.10164458 -0.047268134 -0.048316326
-2.4953659 2.6515536 -1.567973 -1.758549 0.65258455 2.8767548 -1.0800774 -0.9213072
0.40282682 0.23007753 0.10171231 -0.16217625 -0.84300494 0.35816106 0.24530305 0.204513
-0.0724215 -0.035810187 -0.06156279 -0.30125982 -0.13624085 -0.45677954 -0.039869413 -0.006976861
-0.8057885 -1.0340205 0.2018583 -0.3748517 -0.0923635 -0.07413422 -1.2959901 -0.4609381
0.10533336 -0.4803879 -0.042374037 -0.090554446 -0.91158825 -0.8151491 0.47656843 -0.13694564
0.07871419 0.05382085 -1.3190194 0.6242444 -0.19567032 0.29587436 -0.7689683 0.09293724
1.0192338 -1.0335317 -1.0030665 -0.29319638 -0.41804945 -0.46022964 -0.511379 -0.60072154
0.42208862 -0.24238029 0.10425202 0.05029778 -0.5564557 -0.020511845 4.5087805 -0.2975387
-0.3040081 -0.02212532 2.5186598 -2.7422345 0.93643296 3.7605069 -0.61083055 -0.67641896
-2.3198204 2.2463918 1.0087267 -2.3149211 -0.39103046 -0.41935727 2.1007814 1.6557332
-1.0618445 -1.6938334 0.050217945 -0.06303151 -0.2704657 0.2897669 -0.41492334 -0.17580214

l1.bias f4 [128]
00000000: 12b2 4bc0 5381 acbf 9142 1640 9c04 01c0
00000010: d3cb c6bf b1ba 9cbf 3948 0bc0 0bf7 4cc0
00000020: cce5 d9bf b99c e1bf bada b9bf 02e9 f7bf
00000030: bcee 0ac0 2916 24c0 4123 ef3d 18e6 8abf
00000040: 3d3b e8bf 32e7 0f3f 0123 40c0 a362 4bc0
00000050: 5195 09c0 189c 2bc0 f736 ec3f 4ebe 003e
00000060: 22dd dfbe 589c 76bf 9aef bb3e 86e2 97bf
00000070: 537c debf cf3e 03c0 a7ee bdbf 5e34 91bf
00000080: 174f 0fc0 4386 08c0 5d88 02c0 2c35 54c0
00000090: a3db 37c0 85c1 efbf 5790 0cc0 1493 b4bf
000000a0: 292e 39c0 c236 993e 3671 0ac0 b368 4bc0
000000b0: 187d fdbf ad88 2ebf 26bc 42bf 5406 fbbf
000000c0: 4b9c 03c0 222a febf be87 1dc0 0a2c a0bf
000000d0: 432a 96bf c95a f2bf 97c4 ee3e 002b dfbf
000000e0: 1e9e 37c0 635a 133f 6c30 52c0 1f08 f9bf
000000f0: 77e7 aebf b314 99bf 9db6 f0bf 4f19 d83e
00000100: 1762 34c0 1156 47bf 1748 38c0 afab 34c0
00000110: aa50 4fc0 cc48 d3be 1412 39c0 0429 cabf
00000120: 2619 22c0 081c 0ec0 0948 10c0 b24b 68c0
00000130: ec5a 40c0 1410 f4bf fc6f 13c0 3643 acbf
00000140: 2831 1dc0 1d29 3ec0 c8ae b2bf 658f 45c0
00000150: 5cbe 2ebf 9914 d2bf e732 92bf 0ee3 d33f
00000160: 3705 38c0 4de0 00c0 899a 9dbf 1144 a13e
00000170: d81f c8bf 83c0 24c0 79e6 e03f 1d1f 03c0
00000180: ad41 623c bcd6 aabf 9bb2 e0bf 929b 9abe
00000190: 736c 13c0 7e95 7dbf 7057 5bc0 020f 66c0
000001a0: cb17 03c0 3c66 743d 6b6d 6bc0 5602 26c0
000001b0: 820f 2cc0 11a1 02c0 9700 fbbf eacd dabf
000001c0: d435 dabf 1586 23c0 5c9f c7bf 23ce 13c0
000001d0: 810e fcbf 058a dd3f 397b 1cc0 bd58 e1bf
000001e0: 9a45 4040 81cf a23e 7a25 27c0 aaed b1bf
000001f0: d2aa a6bf 585e 493e 98bb 1ac0 d756 dfbf
-3.1827435 -1.3476967 2.347813 -2.0159063 -1.5530952 -1.2244474 -2.1762831 -3.2025783
-1.7023253 -1.7625953 -1.4519875 -1.9367983 -2.1708212 -2.5638525 0.11676646 -1.0851469
-1.8143078 0.5621215 -3.0021365 -3.1778953 -2.1497386 -2.6814022 1.8454274 0.12572595
-0.43723398 -0.9633231 0.3670624 -1.1866004 -1.7381691 -2.0507085 -1.4838456 -1.1344106
-2.2392023 -2.1331947 -2.039573 -3.3157454 -2.8727806 -1.8730932 -2.1963098 -1.4107385
-2.8934424 0.2992459 -2.1631598 -3.1782653 -1.98038 -0.681773 -0.7606834 -1.9611306
-2.0564144 -1.9856608 -2.46141 -1.251344 -1.1731647 -1.8933955 0.4663436 -1.7434998
-2.8690257 0.57559794 -3.2842054 -1.9455603 -1.3664387 -1.1959442 -1.8805729 0.4220681
-2.818487 -0.778657 -2.8794 -2.8229787 -3.2392983 -0.41266477 -2.8917284 -1.5793767
-2.532785 -2.220461 -2.2543967 -3.62962 -3.0055494 -1.9067407 -2.30371 -1.3458011
-2.4561253 -2.9712594 -1.3959589 -3.086877 -0.68259215 -1.6412536 -1.1421784 1.6553667
-2.8753183 -2.0136902 -1.2312785 0.31497243 -1.5634718 -2.57425 1.7570335 -2.048774
0.013809604 -1.3346782 -1.7554506 -0.30196816 -2.3034942 -0.9905623 -3.4272118 -3.594666
-2.0483272 0.05966781 -3.6785533 -2.5938926 -2.6884465 -2.0410807 -1.9609555 -1.709409
-1.7047677 -2.5550587 -1.5595508 -2.3094566 -1.9691926 1.7307745 -2.445021 -1.7605206
3.0042481 0.31798938 -2.6116624 -1.3900654 -1.302088 0.19664896 -2.4176998 -1.7448376

l2.weight f4 [64, 128]
00000000: 46e5 e0bf a93a f2be fca4 7dbe 3111 58be
00000010: bc50 abbe 67f1 cbbd 7a61 7abf 9293 7cbf
00000020: c4d7 29bf 67ff 54bf a679 e3be ff4a 96be
00000030: 18b2 25bf 7222 30c0 53c3 87be 8482 9dbf
00000040: b90e ffbf da89 7c3f d173 a6be a24c d43f
00000050: a6a1 c3bf 47eb 47bf a628 bfbe 992d b7bd
00000060: 669f fabe 3d88 6ebf 24a2 c83e 214e a3be
00000070: 5215 c43e ff82 f5be 0abf ebbd dcc7 70bf
00000080: d8cd 95be a850 aebe 1aae 53bf d953 01c0
00000090: 702a 3840 072f aebe ffd0 e3be 6135 7f3e
000000a0: 1197 a93f 2549 813f 0901 bbbe 31f0 82be
000000b0: 4d6e e5be 6d50 c2be d7a7 d2bf dc46 623f
000000c0: d3b4 d93d 23d9 e43c a443 703d 33e1 8c3d
000000d0: 158b 003e 6ff5 58be ddf7 25bf c553 0ac0
000000e0: 6ad3 4abd f7de 263b ee2d 34bf d3ec 27bf
000000f0: fd62 72bd 6ec4 0ebe 1301 ddbf 91d0 373f
00000100: 2df5 e9bf 25f9 abbe 79ae fa3e 7d40 39bf
00000110: 589b e4bf 72ba 103f d997 c8bf c459 ba3f
00000120: 0cff 48bf 14cb 0bbf b2c3 33be 20fc 88bf
00000130: af29 32c0 2e7c 953e e037 08c0 09af bebe
00000140: 78cb 0cc0 fe14 b1be 8966 61be f7e6 f5bf
00000150: c667 803e 4809 52bf 04fc 34bf 684b 9cbe
00000160: e65e f1bf 99fc 033f 6de5 56bf f3a6 cdbd
00000170: a5d6 9cbe 468e 063f 196e 0940 0935 b9be
00000180: 6f32 8b3f d20b 4abf 366b 1fc0 06e2 86bf
00000190: 8c81 043f 945f b23e 58f7 a6bf c81f c1bf
000001a0: af06 61bf 94dd 15be 3ec5 eebf 5644 bdbf
000001b0: e3b2 fbbf 9f48 25bf 3fa6 7a3d 06ea f2be
000001c0: 9b25 05c0 9792 fdbe 9030 2abf 26db a53f
000001d0: 164c 55bf 8e63 0a3e 6986 22bf 8e9f 7dbf
000001e0: a9d6 1040 795b 123e 589c c3be ba77 063f
000001f0: 2cf1 69be 6b00 24bf 75c6 a0bd cae1 3f3f
00000200: 4943 b3be 3d66 5040 66ca acbe 78bb 1140
00000210: acdf 663f 807e bc3f c312 30bf 690d 9fbf
00000220: a339 4e40 9085 2740 b967 4040 6e3c 153f
00000230: ef22 fd3f 8c45 8f3f d375 0d3e d78b 61be
00000240: fedb a43f 0c86 4fbf 0c48 2840 1c04 febb
00000250: a04d b43f c5e7 f63f b4e6 b13e 8653 54be
00000260: a224 8d3f e5b3 aebe e0ad 88bf e5a6 6240
00000270: eed8 f5be 1740 423f 0c04 3640 8096 3140
00000280: da52 3240 08df f73f bb3c 4e40 8974 4abe
00000290: 5e45 45be a37d ed3f 3495 7abe 3366 853f
000002a0: 07a0 a23d 1be4 adbe 2f21 5e40 0b1e 8a3f
000002b0: 8bc7 163f 4936 4d40 4829 023f 6535 cabe
000002c0: b7d8 d33f 1783 5340 ee0a 93be 1405 583d
000002d0: 7820 003f 1f57 f63f 1b8b 6e3d 4812 7d3f
000002e0: 3b18 0d40 87d1 3ebe 1276 873e 44fc 213f
000002f0: 7a1a 0b40 2f22 4d40 4b6c 0e40 53e6 adbe
00000300: c545 6f3f 7884 5240 89e8 6a40 0e96 2e40
00000310: 3d2b dc3f aa92 243e 07d0 d73e 498e 21bf
00000320: c657 a6bf 74b4 8140 28c9 1740 7c38 0840
00000330: 7dfb d63f 4902 babd 1925 743f 9ce1 b03f
00000340: bdba e23f 4d38 2b40 bfd9 b03f 4973 ed3f
00000350: be26 60bf 06d3 1740 b210 653e 77f5 183f
00000360: 4d32 a13f 09cb a43f 4f65 9fbf 4579 8e3f
00000370: 88e4 d73f 5e96 9e3f 214f 1ebf 8d9b 1540
00000380: 3a3a 0bbe 317e 9b3e 3f66 b93e 026b 50bf
00000390: cfae 96bd 1fdd f13f 432f d4bc 1aec a33f
000003a0: 935d 9a3d 645d e83e 8b96 2e3e 97ac 6abe
000003b0: ffb5 d73f 6da3 d83f bdae 2940 3349 2340
000003c0: 2b20 7a3f 9c9e 5f40 4ef2 4640 3c05 9bbc
000003d0: 02b7 ebbe 5966 da3d 497a 6f40 ee87 4040
000003e0: dcd5 173f c0cd 87be d7e3 3bbf 5bc6 74bf
000003f0: 2e76 4340 9a99 a8bf e7ec 87bf a5bc 2240
-1.7569969 -0.4731038 -0.24769968 -0.21100308 -0.33460033 -0.09958153 -0.9780499 -0.98662674
-0.6634486 -0.83202213 -0.44428748 -0.29354092 -0.64724874 -2.7521024 -0.26516208 -1.2305455
-1.9926368 0.98647845 -0.32510236 1.6585886 -1.5283706 -0.7809338 -0.373357 -0.08944244
-0.48949736 -0.93176633 0.39186203 -0.31895545 0.38297516 -0.47951505 -0.11511047 -0.9405496
-0.2925861 -0.3404591 -0.8268753 -2.0207427 2.8775902 -0.34020254 -0.4449539 0.24922706
1.3249227 1.0100447 -0.36524227 -0.25573877 -0.44810715 -0.37951985 -1.6457471 0.8838937
0.106301926 0.02793557 0.058658257 0.06878891 0.12553056 -0.21187375 -0.64831334 -2.161363
-0.049518026 0.0025462487 -0.70382583 -0.6559574 -0.059176434 -0.1394212 -1.7265953 0.7180262
-1.8277947 -0.3358852 0.48961237 -0.72364026 -1.7859907 0.5653449 -1.567134 1.4558644
-0.7851417 -0.5460675 -0.1755512 -1.0701942 -2.7837942 0.29196304 -2.1284103 -0.37242916
-2.1999187 -0.34586328 -0.2201177 -1.921111 0.25079173 -0.8204541 -0.70697045 -0.3052628
-1.8857086 0.5155731 -0.83943826 -0.10041609 -0.3063251 0.5256084 2.1473448 -0.36173275
1.0874766 -0.78924286 -2.4909186 -1.0537727 0.5176017 0.34838545 -1.3044233 -1.5087824
-0.87900823 -0.14635307 -1.8653944 -1.478648 -1.9663967 -0.64563936 0.0611937 -0.4744417
-2.0804203 -0.49525902 -0.6648035 1.2957504 -0.8331922 0.1351454 -0.63486344 -0.99071586
2.2631018 0.14292707 -0.38205218 0.5252644 -0.22845906 -0.6406314 -0.07850353 0.749539
-0.35012272 3.2562401 -0.33748168 2.2770672 0.90185046 1.4726105 -0.6877863 -1.2425967
3.2222679 2.617527 3.0063307 0.58295333 1.9776286 1.1193099 0.13814478 -0.22026001
1.2879636 -0.81063914 2.6293974 -0.0077519547 1.4086189 1.928948 0.34746325 -0.20734987
1.1026804 -0.34121624 -1.0678062 3.5414364 -0.48017067 0.75879043 2.843997 2.7748108
2.7863069 1.9364939 3.2224567 -0.19771017 -0.19264743 1.8553966 -0.24470979 1.0421814
0.07940679 -0.33963093 3.4707754 1.0790418 0.5889823 3.2064383 0.5084424 -0.39493862
1.6550511 3.304876 -0.28719276 0.052739218 0.50049543 1.9245337 0.05823813 0.9885602
2.204604 -0.18634616 0.26457268 0.6327555 2.173491 3.2052114 2.2253597 -0.33964786
0.93465835 3.2893353 3.6704428 2.7279086 1.7200695 0.16071573 0.421509 -0.63107735
-1.2995536 4.053278 2.3716526 2.1284475 1.6795498 -0.09082467 0.95369107 1.381885
1.7713238 2.6753113 1.3816451 1.8550807 -0.87559116 2.3722548 0.2236965 0.5974955
1.2593476 1.2874461 -1.2452792 1.1130759 1.6866617 1.2389638 -0.6183949 2.337619
-0.1359643 0.30369714 0.3621082 -0.8141328 -0.07357561 1.8895606 -0.025901442 1.2806427
0.07537379 0.4538375 0.17049615 -0.229174 1.6852416 1.6924874 2.6512902 2.5513427
0.97705334 3.4940557 3.108539 -0.018923394 -0.4603806 0.106640525 3.7418387 3.0082965
0.593107 -0.26524162 -0.7339453 -0.95615166 3.054088 -1.3171875 -1.0619172 2.542764

l2.bias f4 [64]
00000000: 2778 e2bf 1373 93bf 343a 6ac0 c817 46c0
00000010: 56b9 3cc0 5d9b 59c0 5eef 79c0 8f09 3dc0
00000020: 8d4f 77c0 d6b3 0ac0 a609 1bc0 ea98 0cc0
00000030: 229d 81c0 56ae 963e c00c f0be a7ed cfbf
00000040: fd2c 5dc0 61a1 b4bf b11c eebf fbc3 44c0
00000050: 1d18 82bf 690a a93d 03d2 25c0 1a7f b8c0
00000060: b649 50c0 685c 483f 6665 e2bf faf7 09c0
00000070: 350b d8bf e88c f73e 0aa8 b1c0 cd91 3dc0
00000080: a333 e3bf f2c1 76c0 2515 05c0 33a8 8cbf
00000090: 6f19 1ec0 6dfd 8bc0 ff18 e7bf 38ec de3e
000000a0: 5b54 72c0 7ed6 c6bf b010 13c0 1c0a 3bc0
000000b0: fbce 0ac0 437c 4ac0 8b4b a4bf 45cd fdbf
000000c0: 682e d7bd 4439 67c0 0c94 033f f704 62bd
000000d0: 2112 34c0 1c0a cdbf 9bd8 a2c0 c44a 13c0
000000e0: bf6d a33f cf54 673e 7782 97bf 4d76 9ac0
000000f0: 3d4b b8c0 2f83 abbf 997d a93e c1cd afc0
-1.7692918 -1.1519493 -3.6598024 -3.0952015 -2.948812 -3.4001076 -3.9052348 -2.9537084
-3.8642304 -2.1672263 -2.422464 -2.1968331 -4.0504313 0.29429883 -0.46884727 -1.6244401
-3.4558709 -1.4111749 -1.8602506 -3.0744617 -1.0163609 0.08253939 -2.590943 -5.7655153
-3.254499 0.78266 -1.7687194 -2.1557603 -1.687842 0.4834969 -5.5517626 -2.962024
-1.7750133 -3.8555875 -2.0794156 -1.098883 -2.4703023 -4.374686 -1.8054503 0.43539596
-3.7863986 -1.5534208 -2.2978935 -2.922492 -2.168883 -3.1638343 -1.2835554 -1.9828268
-0.10506898 -3.6128702 0.51397777 -0.055180516 -2.8136065 -1.601871 -5.088941 -2.3014383
1.2767867 0.22590946 -1.183669 -4.826941 -5.7591844 -1.3399409 0.33103636 -5.4938664

l3.weight f4 [3, 64]
00000000: 1ef9 6abe 35e2 f4be 39de 613d 1e62 f3be
00000010: f5bf fe3e 77f6 a3bd a933 5a3e b6c7 0e3e
00000020: 0047 de3e 0ef6 103f 8c1b aa3e 780e 58be
00000030: 962a 69bd 680c 9fbe 1e2a 613e 2e8a bd3e
00000040: 6d01 693e b3a3 a1be 0e42 f13e d153 7ebc
00000050: 9590 da3c d366 28bd 9768 a63e fd91 cfbd
00000060: 927c db3e 5fc2 003e 45dd 163e b227 553e
00000070: b028 2fbe 7b52 8f3e 8222 03bf 6e7a 0f3f
00000080: 1ac4 1fbd 2777 f73e 4e53 c6be 9f96 013f
00000090: 0391 813d 25de a23e 0b5e a9bd b34d 49bd
000000a0: d6bd 053f c215 8d3e 41cf 8dbe 9278 373d
000000b0: 9773 fbbe f567 873e 3a45 d4be b83f d23e
000000c0: 6da1 fd3d c47d 3bbe eb84 ac3e 507c e8bd
000000d0: a27c 683e 920a a63e cd3e 633e 4bcc 183d
000000e0: b059 4c3e 792f ddbd 7c29 b6be 7409 ee3e
000000f0: 6a3f b23e d3f5 ce3e be13 bd3e 28a9 193f
00000100: 23b4 42be c292 9fbe 8aa6 26be 21dd 89be
00000110: 5af9 e23e 1eb6 4ebe 16e2 d83e acc7 7a3c
00000120: 306d 733e e17b ca3e 2680 e43e 2912 47be
00000130: f275 b8bd 1eb0 25be 3eea 2c3e 36de d93d
00000140: ed22 243f 4efc b93d c1b3 053f c95a 24be
00000150: eea5 a4bd 3ff4 7dbe 0752 493e a265 97bc
00000160: 2c5c c43e 9fd4 9c3e 36b8 003e f0a7 a13d
00000170: 751d 89be d892 313e a11c f5be 9511 113f
00000180: 1ab0 b5bd fdc7 393f e96d a3be 3de2 f13e
00000190: dbef c23c d063 eb3e 4834 adbd 32cc 2dbe
000001a0: 1a1e 043f c8da 1a3e bbdf 19be 6ac2 70bc
000001b0: 44a3 b7be 60f5 c63e e8a3 a6be 8afc 493e
000001c0: 73fc 623e 9300 b5bd 6a94 813e bc16 78be
000001d0: cf86 0fbd 9a59 903e d943 123f 5f7a 853d
000001e0: b456 813e 9b34 0ebe 3fc4 36be 806c 263f
000001f0: 4132 2e3e 36cc 0d3f ec5b df3e 68cb 083f
00000200: e479 2bbe ea88 97be 5bb0 91bd 51ae 81be
00000210: fb4b 083f 654b debd 51ad fe3e 1999 693e
00000220: 7720 cd3e 57b8 063f ebad 8a3e 2e4f 8abe
00000230: d70e f0bd c80f 09be 4e13 0c3e 531d 633e
00000240: 4369 0a3f beec 65be e585 c03e acfd 2ebe
00000250: 4080 9ebe 6af2 b2be 0779 dbbd 6ee8 6fbd
00000260: be9d e63e 1b02 893e 411e 2a3e bd05 84bc
00000270: 7929 1bbe 3094 a23e f5a1 1ebf 4774 043f
00000280: 6eae bdbe 9c95 213f dee0 21be cbbb 0b3e
00000290: bab4 cabc 9a75 6f3e 0ce3 4fbe cbcd 81be
000002a0: 36d8 e43e 3dff dc3e 8ed8 2ebd 668a 1cbe
000002b0: acda 02be 3eda b23e e024 2ebf f002 0e3f
000002c0: 2226 013e a73e f7bd 2c09 3e3e cdf1 77be
000002d0: a1d3 c2be c545 873d bed1 423f 02df 2bbe
000002e0: 52cf 253e 80e3 cabe 2821 8cbe 3662 9a3e
000002f0: eb01 003f 3c84 ea3e 044d a83e 33b6 2a3f
-0.22946593 -0.47828832 0.05514357 -0.47535795 0.49755827 -0.08005994 0.2130877 0.13943371
0.43413544 0.5662545 0.33224142 -0.2109927 -0.05692538 -0.31064153 0.21988723 0.37019485
0.2275445 -0.31570205 0.47120708 -0.015522913 0.02668027 -0.041113686 0.3250167 -0.10135267
0.42868477 0.12574147 0.14732845 0.20815924 -0.17105365 0.27992615 -0.5122453 0.5604619
-0.039005376 0.48333094 -0.3873543 0.50620455 0.06326487 0.31810108 -0.082698904 -0.049146365
0.5224279 0.27555662 -0.27697185 0.04479272 -0.49111626 0.264465 -0.41459066 0.4106424
0.12384305 -0.18309695 0.33695158 -0.11351836 0.22703794 0.3242994 0.22191925 0.037304204
0.19956088 -0.1080007 -0.35578525 0.46491587 0.34814006 0.40421924 0.36929125 0.60023737
-0.19014029 -0.31166655 -0.16274467 -0.2692652 0.44330865 -0.2018666 0.4235999 0.015306395
0.2377212 0.39547637 0.4462902 -0.19440521 -0.09006871 -0.16180465 0.16886231 0.106380865
0.6411579 0.090813264 0.5222741 -0.16050257 -0.08039461 -0.24800204 0.19660197 -0.01848108
0.38351572 0.30630967 0.12570271 0.0789336 -0.26780286 0.17341173 -0.47873405 0.56667453
-0.08871479 0.7257078 -0.31919792 0.4724292 0.023796013 0.45974588 -0.084572375 -0.16972426
0.5160843 0.15122521 -0.15026753 -0.014694789 -0.3586675 0.3885908 -0.32546926 0.19725242
0.22166614 -0.08838 0.25308543 -0.24227422 -0.035040673 0.2819336 0.5713478 0.06517481
0.25261462 -0.13887255 -0.178483 0.6500931 0.17011358 0.55389726 0.43624818 0.53435373
-0.16745716 -0.29596645 -0.07113715 -0.25328305 0.53240937 -0.10854224 0.49741605 0.22812308
0.4006383 0.5262503 0.27085814 -0.27013534 -0.117215805 -0.13384926 0.13679239 0.22179155
0.54066867 -0.22453591 0.37602153 -0.17088956 -0.30957222 -0.34950572 -0.107164435 -0.05857127
0.45042223 0.2675942 0.16613103 -0.016116017 -0.1515254 0.31753683 -0.61965877 0.51739925
-0.37047142 0.6311891 -0.15808436 0.13645856 -0.02474438 0.23384705 -0.20301455 -0.2535232
0.44696206 0.4316348 -0.04268699 -0.1528717 -0.12778729 0.3493213 -0.68025017 0.5547323
0.12612203 -0.12072497 0.18558186 -0.24213333 -0.38052085 0.06605104 0.7610129 -0.1678429
0.16192368 -0.39626694 -0.27369046 0.30153054 0.50002927 0.45804012 0.32871258 0.66684264

l3.bias f4 [3]
00000000: e32d 12c1 5b72 12c1 1483 12c1
-9.136203 -9.152919 -9.1570015

bn1.weight f4 [128]
00000000: ea6b 5040 2990 3840 179c 10be 8f5a f53f
00000010: 5afb db3f 28dc 9a3f 7253 10bf c0a8 5440
00000020: 5a36 4940 3cd6 3440 0e9c 2b40 6412 0040
00000030: 0143 2c40 aae8 4c40 f34b 7cbe e72c bb3e
00000040: 15aa 2d40 89dc 523e aebe 2640 e6c9 2b3f
00000050: 6450 3a40 a1ed 3340 5b6f 5f3e 6d0e bcbd
00000060: 21ec 3b3e 0581 963e 694f 9ebd 8cf0 2a40
00000070: 290a c63d a047 5140 1acf 2740 dd6e 1c40
00000080: da0a 2a40 983f da3f c76f 4e40 5917 4940
00000090: 4b9c 63bf a763 3440 2bd3 81bd d324 d7be
000000a0: 0264 a03e 0001 473e fa5f 3940 e11f f93f
000000b0: 26bf 833e 7939 3740 8731 ee3d 0b25 263f
000000c0: 1d87 973f d449 0f40 53e6 8f3e d67b 443e
000000d0: d599 9d3f b8e9 1340 5fcb 6b3e fc1c 4240
000000e0: 25d3 3440 854e 8ebe dc3c 1b40 0c68 c53f
000000f0: 004a 3c40 7466 3f40 fde9 5240 d7c9 673e
00000100: 0279 2f40 2c77 3340 f317 0140 0e7d 5240
00000110: cf95 6840 cd07 b2bd 744b ff3f 678e 0f3e
00000120: aa26 e2be 8013 6040 a42a 4540 dfba 7640
00000130: cb38 8840 dd28 98be 19d0 3140 fb72 1040
00000140: 0b17 4e40 815a 2940 16ce 0d40 860a 5640
00000150: 7b9d bd3e 6b1f 0840 02a3 a13d d976 bb3e
00000160: 0b6f 6040 1b29 1140 7e83 a0bd f32e 0dbe
00000170: b2b2 2640 909d 9d3f b50b 2e3e 94c4 2640
00000180: cc8d 5b3e 6c8d 543e 3633 4840 41a9 183d
00000190: bbd3 883f 2b29 2740 dd3a eb3f 39c1 4940
000001a0: c0da 883f bee1 a53e ed4f 3d40 ce56 da3f
000001b0: fb30 4a40 1351 0740 eeaa 4340 cde3 f53f
000001c0: cd35 3e40 b3bc 4e40 ad6d 4c40 5b2b 153e
000001d0: 46af fe3f e522 38be b24d 4040 eb97 f83f
000001e0: 9493 d93e 7668 93bd 77d0 7f3e 098e 5d3e
000001f0: eead 3b40 7404 45be 734c 913e 9f58 e23f
3.2565866 2.8837988 -0.14122044 1.9168261 1.7186081 1.2098436 -0.5637733 3.3227997
3.1439424 2.8255758 2.6813998 2.0011225 2.6915896 3.2017007 -0.24638347 0.36557695
2.713506 0.2059194 2.6053882 0.6710495 2.9111567 2.8113787 0.21819822 -0.09182439
0.18351795 0.2939531 -0.0772999 2.6709318 0.09669907 3.2699966 2.6220155 2.4442666
2.6569123 1.7050657 3.2255723 3.14205 -0.8891036 2.8185823 -0.06339105 -0.42020282
0.313263 0.19433975 2.896483 1.9462854 0.25731772 2.8628829 0.1163054 0.64900273
1.1838108 2.238881 0.2810541 0.19187865 1.2312571 2.31114 0.23026799 3.033019
2.8253872 -0.2779428 2.4255896 1.5422378 2.9420166 2.9906282 3.2955315 0.2263559
2.7417607 2.8041487 2.0170867 3.2888827 3.6341436 -0.08692894 1.9944901 0.14019166
-0.44170123 3.5011902 3.0807276 3.8551557 4.2569327 -0.29718676 2.7783263 2.2570179
3.2201564 2.646149 2.2157035 3.3443923 0.3703421 2.1269176 0.078924194 0.3661411
3.5067775 2.2681339 -0.0783758 -0.13787441 2.6046567 1.2313709 0.16996653 2.6057482
0.2144081 0.20757073 3.1281257 0.037270788 1.0689615 2.6118877 1.8377339 3.1524184
1.0691757 0.3239879 2.9580033 1.7057741 3.1592395 2.1143234 3.0573077 1.9210144
2.9720337 3.2302673 3.194194 0.1456732 1.9897239 -0.17982061 3.0047421 1.9421362
0.42495406 -0.07197659 0.24981867 0.21636213 2.9324908 -0.1923998 0.2837864 1.7683295

bn1.bias f4 [128]
00000000: 5c4f 843f 51f7 6e3f f2bf 5d3e 56ed 1d3f
00000010: a397 1c3f 31a7 b83e d6bb d4bd f07a 8b3f
00000020: 209e 723f f5f0 6b3f b20c 5e3f 3cf9 303f
00000030: 2842 5d3f 7dd1 853f f5fc 0f3e 1667 9dbd
00000040: 1134 633f 5a7d 14be bd5e 5f3f b727 873e
00000050: b90b 733f 4d80 6b3f a8a5 d1bc 5a3a 223e
00000060: c463 e9bc e416 04be 0007 3d3c efd4 613f
00000070: dbb7 1fbe e378 8a3f 0df5 5a3f 46a6 4a3f
00000080: 2d04 613f 62da 083f e4c7 853f 4d25 833f
00000090: 144a 95be 1218 643f 7721 b5bc c845 ae3d
000000a0: e0e7 713d bb87 adbd ab2a 6d3f 17eb 1d3f
000000b0: 046b 433c 4bcf 6a3f 5bb0 1ebe f026 6f3e
000000c0: 257b ad3e 5735 373f 030e a7bc fedb f7bb
000000d0: 36db e23e 9535 3c3f a174 07be a7e2 7a3f
000000e0: 3225 663f cfa5 d13e 5adf 4a3f b397 e93e
000000f0: bb9e 733f 06ec 6b3f 7452 8c3f 0a21 6abe
00000100: 6442 663f 1a4a 653f 9af6 223f a68b 8a3f
00000110: 3e5a 9a3f 8429 d93c 9e51 1f3f 5a49 0dbd
00000120: d467 c7bd ec20 903f 4792 7f3f 022d a33f
00000130: 5378 af3f 474d d3ba 80fc 643f ae56 3d3f
00000140: 56e4 853f ad77 5c3f 13f0 353f 900b 893f
00000150: 1ac3 163d e75d 313f 29c8 56bd 7fde d4be
00000160: 8486 933f d9ba 2f3f af67 313e 3180 a33d
00000170: 15ef 5a3f 8c14 de3e 02df acbd 47e8 603f
00000180: ad3e 7f3c ee9e 6dbd 2d34 7d3f fc16 8d38
00000190: 8a63 bb3e b055 583f 4c9e 1d3f 54ab 7f3f
000001a0: 0c6e af3e d6fa 1fbe 0c8e 743f 865c d73e
000001b0: 4172 823f 20ea 293f 4fb7 7e3f e717 1e3f
000001c0: a35c 823f d8af 853f 7478 873f 507d 26bd
000001d0: 0334 1d3f 1c38 c23d 5ae1 743f 2613 273f
000001e0: 95a5 d4be 09f7 763e c71c e33d ba9b 8dbd
000001f0: 8614 7a3f c7c5 df3d dd53 b53d a1ad 0a3f
1.0336719 0.93346125 0.21655253 0.6169027 0.6116888 0.36065057 -0.10387389 1.0896893
0.9477253 0.92164546 0.8673812 0.691303 0.8642907 1.0454556 0.14061339 -0.07685678
0.8875132 -0.14500943 0.87253934 0.26397488 0.9493976 0.91992646 -0.025591686 0.15842572
-0.028489955 -0.12899357 0.011537313 0.88215536 -0.15597479 1.0818142 0.8553017 0.79159963
0.87896997 0.53458226 1.0451627 1.0245758 -0.2915808 0.8909923 -0.022110684 0.085094035
0.059059024 -0.08473154 0.9264323 0.61686844 0.01192737 0.91722554 -0.15496962 0.23354697
0.33883014 0.71565765 -0.020392423 -0.007564067 0.4430787 0.7351926 -0.13228084 0.98002094
0.89900506 0.40946814 0.7924706 0.4562355 0.9516408 0.9215702 1.0962663 -0.22864166
0.89945054 0.89566195 0.63657534 1.0823867 1.205879 0.026509054 0.6223391 -0.03449378
-0.097366005 1.1260047 0.99832577 1.274811 1.3708595 -0.0016121053 0.89447784 0.7396039
1.0460308 0.8612011 0.7106945 1.0706654 0.036807157 0.6928391 -0.05243698 -0.41576
1.1525426 0.6864448 0.17324708 0.07983435 0.8552106 0.4337505 -0.08440973 0.8785443
0.015578908 -0.058012895 0.9890774 6.727685e-05 0.3659938 0.8450575 0.61569667 0.998708
0.34263647 -0.1562303 0.95529246 0.42062777 1.0191118 0.6637287 0.99498457 0.6175522
1.018452 1.0444288 1.0583634 -0.04064685 0.6140749 0.09483358 0.9565636 0.65263593
-0.4153258 0.24117674 0.11089473 -0.06914468 0.97687566 0.10926395 0.08853886 0.54171187

bn2.weight f4 [64]
00000000: d3ae 813e 937c 46bf f2e0 dfbd 1d55 19bf
00000010: e807 843f dcb1 91be 4ad3 a43f 5fb0 69be
00000020: 8dc1 573f d122 483f e06a 503f f01f 7b3e
00000030: 5a05 543f 373d a8be b2e7 42be 8e62 f53e
00000040: a10a b23f 22d1 8bbe c805 783f 7976 c6be
00000050: ab91 643e 18d0 653e 17bc 133f 87c6 54be
00000060: 54ac 623f 9d68 a03e f541 683e 4335 d8bd
00000070: af9d 7b3e 49c1 80be 88bb a9bf c561 bc3f
00000080: 15cd a5be a8a9 a93f 0684 debe af41 433f
00000090: fd0f f13d ec4b 083f 8a51 243e 6226 893e
000000a0: 2b07 9e3f b766 053f ea8f 623e 6ea8 423e
000000b0: 6c25 47bf 4fd0 613f 4228 2ebf 43ed 7c3f
000000c0: 342d 4dbe 44b0 5d3e 4c5f 7abe d4e7 0dbf
000000d0: c846 ce3e 246d 9dbe 0d56 5d3f 93b2 bfbe
000000e0: b612 5cbe 22fc 963e 7988 09bf a455 613f
000000f0: 7130 753f 51b5 273f 100f a7be e205 933f
0.25328693 -0.77533835 -0.10931577 -0.598955 1.0314913 -0.28456008 1.287698 -0.22821186
0.8427971 0.78178126 0.8141308 0.24523902 0.82820666 -0.32859203 -0.19033697 0.47926754
1.3909494 -0.27307993 0.9688382 -0.38762262 0.22321193 0.22442663 0.5770888 -0.20778857
0.885442 0.31329814 0.2268141 -0.10557034 0.2457187 -0.25147465 -1.3260355 1.4717337
-0.32383028 1.32549 -0.434601 0.762721 0.11770628 0.5324085 0.1604673 0.26787096
1.2345937 0.52109855 0.22125211 0.19009563 -0.77791476 0.8820848 -0.6803018 0.9879953
-0.20036775 0.21649271 -0.24450415 -0.55431867 0.40288377 -0.3074733 0.8645943 -0.3744093
-0.21491513 0.29489237 -0.53723866 0.880213 0.9577704 0.6551104 -0.3262868 1.148617

bn2.bias f4 [64]
00000000: dbb8 e3bd e63f c2be 4197 c9bd 38c5 97be
00000010: d5fc 073f 404b d5bd 8425 1e3f 6aad c6bd
00000020: 3a30 d33e e623 c73e f3ae d23e 3077 69be
00000030: 8a13 e53e c672 0cbe 6fef c73e 1fb8 6c3e
00000040: f75d 363f 105a f5bd d184 f33e 3de2 34be
00000050: 3af5 8abe 1b94 efbe 4efc 963e e32f c9bd
00000060: 14c2 d73e e7e9 0b3e bcf6 c93d e4e1 a1bd
00000070: 64da 49be 14d3 9a3e a393 2bbf 0821 3e3f
00000080: f44b 21be 2534 2c3f e5e5 5abe 75ac bb3e
00000090: bd54 1d3d 5f78 8b3e b4eb ccbd 7cd3 2fbf
000000a0: 8816 1e3f 1021 7c3e 1eec 0dbe 3b24 833d
000000b0: c1c0 c3be 3712 d63e 48f9 a9be 9f6b 033f
000000c0: a759 d23e 1fa7 b83d 5a15 e23e d177 7ebe
000000d0: 25fe 3a3e e272 323e 7413 e33e ba25 31be
000000e0: c77d 2a3f 6ccc 92be 7d9d 80be 545d e63e
000000f0: 5820 f63e f87c a73e b07b f83e 20ac 183f
-0.11119243 -0.37939376 -0.098433025 -0.29642653 0.53120166 -0.104147434 0.61775994 -0.09701045
0.4124773 0.38894576 0.411491 -0.22799373 0.4474147 -0.13715658 0.3904986 0.23117112
0.7123713 -0.11980069 0.47562268 -0.17664428 -0.27140218 -0.46792683 0.29489368 -0.09823587
0.42140257 0.13663445 0.09861514 -0.07904413 -0.19712216 0.30239165 -0.6702215 0.7426915
-0.1575163 0.67267066 -0.2137676 0.36655012 0.03841089 0.27240273 -0.10005894 -0.68682075
0.6175313 0.24621987 -0.13859603 0.06403395 -0.38232997 0.41810772 -0.33198 0.5133609
0.41084024 0.09016251 0.44156915 -0.24850394 0.18261011 0.17426637 0.4435078 -0.17299548
0.6659817 -0.28671587 -0.25120154 0.4499308 0.4807155 0.3271253 0.48531866 0.5963764
