models/cartpole_qnet_1000.pth (torch, 39321 bytes, 6 tensors)

l1.weight f4 [128, 4]
00000000: 0f7c 2c3c 0126 e93a 26c1 613f 7eb5 c73d
00000010: d226 3bbe 07b8 19bd 143b 433c 2d4a c4bc
00000020: 49ce 3c3e 49d4 2c3d 7042 f1bd 4d2a 6a3c
00000030: f365 e83b eaca 233b 8456 123f b08c 7b3d
00000040: c4d1 15bd 60f6 22bd 81a4 06bf 43c2 05be
00000050: 80f7 34bc f2c0 0dbb 7b01 b2bf 6097 0cbe
00000060: 52bb 8b3b 91fc 5a3b 15dd 9dbf 1540 05bc
00000070: 0a28 0abe 6ba1 1fbd 99d0 6bbd b6c6 22bd
00000080: ff02 54bc 8dea 17bc 0f65 b03f dd1c d33c
00000090: 7630 8bbd 225a 95bc 56b6 cdbe e83b 4fbd
000000a0: ffc0 1a3c 9d07 bbbc 145b c4bf 6669 45bb
000000b0: d3d1 99be 7273 2abd f750 063e 8e02 7cbc
000000c0: 397f 823e ef3b c43c 32e7 3ebe 5d3f 4fbc
000000d0: 85b4 293b 18d9 fe39 b7dc c53f b347 1d3e
000000e0: ddff 7fbe c521 78bc 1f4d ba3d 84b2 39bc
000000f0: 944d 34be 8b1d 61bd e4f5 49bd 0dc8 edbc
00000100: c67d 933e 59b4 573c 6091 61be 1606 dabc
00000110: 1280 e33b 2478 24bc f374 5cbf 46f9 88bd
00000120: 196a 423e 052f aa3d 46c3 c83d 6e49 1d3d
00000130: 9a32 a1be b6ea e4bc 90ec aabc e806 813d
00000140: 7cdf a63e c338 303d e5df 9bbe 80b1 563b
00000150: dc92 65ba f1fb a13b 6656 81bf 9029 c2bd
00000160: 274a 81bd b683 0ebd 1736 f6bd d807 f3bc
00000170: 6186 22bc 0d87 833c 6241 483f 2a1a de3d
00000180: e2f5 c6ba ed4f d23b ec92 85bf 4d9a 19bd
00000190: b615 bd3c 49e1 68bc 7224 393f cbf3 5b3d
000001a0: dee9 5e3b a286 ee3b b907 a7bf 9188 f8bc
000001b0: 1c1a 5cbe c2ad 14bd d1c1 b73c 1f40 9bbc
000001c0: f264 fabd 9ed9 04bd 4036 a5bd 8c41 fbbc
000001d0: 73d0 11be d0a4 0ebd d239 71bd 8005 13bd
000001e0: 449a c03b 7066 22bb 38de bf3f 6603 af3b
000001f0: fe81 babe d079 403e 9417 abba 332e 073d
00000200: 3c7b 393e cf2c a8be 1d96 3d3e a807 28be
00000210: e930 82bc 450c cbbb 0499 aa3f f05c 14bc
00000220: cd1c 0a3c 8d9d b7bb 56e6 a7bf be3c 9cbd
00000230: 21ad 063b 3142 de3b cf69 5d3f 63bd ab3d
00000240: d563 e0be 2add bdbb abc0 0f3e 2e18 a2bc
00000250: fa18 263e 29a0 943d fec3 013f 2d05 9d3d
00000260: 7deb eabd 1dac 8abc 77fb 62bd 03b0 cabc
00000270: 3a05 48be 373d ae3d 6a5e 15be 3f8b 5b3d
00000280: f274 20be ee79 58bd a991 ddbc 0ce2 f3bc
00000290: 5777 a03e 56fc 8d3d 605f 3abe 4abf fc3c
000002a0: b920 a13a fd71 513b 924f 4b3f 307f 923d
000002b0: 3887 9bbe b60e 60bb 685d 6d3d 69d3 56bc
000002c0: 5b85 c03c b930 013c 4bf5 513f b36d f93b
000002d0: eaf5 523e d1fa 673d ed47 bc3c 54b8 1e3d
000002e0: 5d7c 163e 16be 5c3e 8ee8 a13d a5c2 283e
000002f0: c60e 0c3d f048 dcbc b5a2 303f 71c6 e83c
00000300: 23d6 24be 12aa 73bd d71a 36bd 7689 dcbc
00000310: a53e fa3a 07c0 393c 6ec1 b0bf 26cc 10bb
00000320: 3efa 923e f0cf c0bd b9e2 bbbe 7645 86bd
00000330: 4c8f db3e 55c0 2a3d 4c01 b6be 8722 17bd
00000340: 5057 313e 8f12 583d e437 5d3d bf1a 24bc
00000350: 32de bbbb 3f2d f23b 4b84 d03e 6198 4e3d
00000360: ac88 c7be 8a6b 553c 3220 9e3d f8ab 58bc
00000370: b90b b83b fea5 70bc 14cd bcbf d94e 3fbe
00000380: 8452 b6be a4ba d0bb 1b52 d43d 772b 8dbc
00000390: 9886 973c d42b 48bc f917 173f d3ae 253d
000003a0: 8d2a 1dbe 6891 80bd 4d3e 9a3f 3754 69bd
000003b0: 3e7d 883e 6fb1 853d 378c 343c 7124 1c3d
000003c0: 2334 be3b ff61 983b da30 653f c9fe a03d
000003d0: a49c 0a3d 7c58 10be d39f 9fbf 818e dcbd
000003e0: 25e9 933e 87da aa3c 419a 1a3f bca4 55bc
000003f0: e214 fc3d 1372 4f3d c966 de3d 53f8 ee3c
0.010527625 0.0017787815 0.88185346 0.09751414 -0.18276528 -0.037529018 0.011915941 -0.023961151
0.18438067 0.04219464 -0.1178025 0.014292312 0.0070922314 0.0024992772 0.5716326 0.061413467
-0.036577 -0.039785743 -0.52594763 -0.13062386 -0.011045337 -0.0021629897 -1.3906702 -0.1372962
0.0042642737 0.0033414701 -1.2333094 -0.008132954 -0.13491836 -0.0389723 -0.05757198 -0.039740287
-0.012940167 -0.00927223 1.3780841 0.025770599 -0.067963526 -0.018231455 -0.40178174 -0.05059424
0.009445428 -0.022830779 -1.5340295 -0.0030122637 -0.30042896 -0.041614003 0.13116823 -0.015381468
0.25487688 0.02395436 -0.18642882 -0.012649384 0.0025894952 0.00048608403 1.5457982 0.15359382
-0.24999948 -0.01514477 0.09096741 -0.011334065 -0.17607719 -0.054959815 -0.049306765 -0.029026056
0.28806895 0.013165557 -0.22028112 -0.02661423 0.0069427574 -0.010038409 -0.8611595 -0.0668817
0.18985786 0.083097495 0.098028705 0.038400106 -0.31483918 -0.02794395 -0.020864755 0.063001454
0.3259238 0.043022882 -0.30444255 0.0032759607 -0.00087575405 0.004943364 -1.0104492 -0.09480584
-0.063129716 -0.034793578 -0.120220356 -0.029666826 -0.009919734 0.016055608 0.78224766 0.10844834
-0.001517948 0.0064182193 -1.0435462 -0.03750067 0.023081642 -0.014213868 0.72321236 0.053699296
0.0034013907 0.007279233 -1.3049232 -0.030338557 -0.21494335 -0.03629852 0.022431286 -0.018951474
-0.12226285 -0.0324341 -0.08066988 -0.030670904 -0.14239673 -0.034825146 -0.058893032 -0.035893917
0.005877765 -0.0024780296 1.4989691 0.0053409813 -0.364273 0.18796468 -0.0013053291 0.033003043
0.18113416 -0.32846686 0.18514295 -0.1640917 -0.015892463 -0.006196531 1.3327947 -0.009055361
0.008429718 -0.0056034983 -1.3117168 -0.07628773 0.002054997 0.006782793 0.86489576 0.08385732
-0.43826166 -0.005794187 0.14038341 -0.01978692 0.16220465 0.072571106 0.50689685 0.07667003
-0.11470697 -0.016927773 -0.055415597 -0.024742132 -0.19533244 0.085077696 -0.14586797 0.053599592
-0.15669611 -0.052850656 -0.027046995 -0.029770873 0.3134105 0.06932895 -0.18200445 0.030852932
0.0012293077 0.0031958811 0.7941829 0.07153165 -0.303766 -0.0034188456 0.057950407 -0.013111928
0.023501089 0.007885152 0.8201491 0.007611954 0.20601621 0.05663568 0.022983516 0.038750008
0.14695878 0.21556887 0.079056844 0.16480501 0.034193777 -0.026890248 0.6899827 0.028414937
-0.16097312 -0.059488364 -0.04445919 -0.026921015 0.0019092156 0.011337287 -1.380903 -0.0022094338
0.28706545 -0.09414661 -0.36696413 -0.06556217 0.42882764 0.04168733 -0.35547864 -0.036898162
0.17318463 0.052752074 0.05400838 -0.010016142 -0.005733275 0.0073906477 0.40725932 0.05043829
-0.3897146 0.013026128 0.077209845 -0.013224594 0.005616632 -0.014688013 -1.4750085 -0.18682422
-0.3560983 -0.0063699055 0.10367223 -0.01723264 0.018496796 -0.012217481 0.59020954 0.04044993
-0.15348263 -0.06277734 1.2050263 -0.05696508 0.26658052 0.065279834 0.011019758 0.03812069
0.005804555 0.004650354 0.89527667 0.078610964 0.03384079 -0.14096254 -1.247065 -0.10769368
0.28888813 0.020856155 0.6039162 -0.013039764 0.123086706 0.0506459 0.108594485 0.029171145

l1.bias f4 [128]
00000000: 76cb 1fbe 5657 d6be abf3 d6be ab02 0e3e
00000010: 47e8 64bd abf9 a3be 7fbb 59be 5819 883e
00000020: 1c48 99be fe1b 103e 4bea b1be bd6d 2cbf
00000030: b4ea 0abf ce59 90be a845 0fbf 0333 ccbe
00000040: 31ac 3bbf 1f29 38be 1352 d8be 13d6 29bf
00000050: 3d99 34bf dda7 28be 02bc 193e 43d1 4e3e
00000060: 6528 4dbe cb16 183e ee03 67be 5dca ffbe
00000070: a808 7d3e b404 913e 5bc6 acbe f4fa 31bf
00000080: 2da6 d0be aa1c 80be 3523 86be dd58 11be
00000090: 3e5e 7dbf ff96 03bf d081 613e 2a04 1d3e
000000a0: 1314 b9be d1db 44bf 586e 35be 2062 30bf
000000b0: a721 4abe b282 05bf ad37 21bf 94c4 023e
000000c0: 458b b9be 00aa 78be bd18 3cbf 6361 60bf
000000d0: 691c c3be 2e05 cd3d 870e 62bf 78c8 8cbe
000000e0: 0b2d 4ebf 8bb0 f13d a117 13bf fc63 27bf
000000f0: 3a2f 4bbe 62b9 a7be 12c1 40bf 3286 76be
00000100: 9d39 81be 40c1 2fbe f144 a0be ded3 1ebf
00000110: eb8b c2be 3b18 91be 1d52 3bbe 0da7 393e
00000120: a65d 3abe 99c5 17bf bdd3 8ebe 4d87 7abe
00000130: 0f63 49bf 5d50 72be 5b2a 2b3e a247 57bf
00000140: 1583 34bf e96e a0be 8993 9cbe 3e32 83be
00000150: 3f5b 46be 6b91 b8be 7244 16bf 27c6 d8be
00000160: 65c4 11bf 7baa 34bf 07fc 18bf 0530 2fbf
00000170: 7028 8abe 58c1 9fbe 30b3 c9be 8725 be3e
00000180: 3ad7 41bf f569 b3be e35b 98be 1805 a3be
00000190: a0e8 63be c1f4 13bf 9c73 18bf a70f 743e
000001a0: 41f6 80be 9721 16bf 7290 83be 73d1 aebe
000001b0: 215d a7be 9ae7 203e 2dd7 36be f8f0 853d
000001c0: 14b1 fbbe 0935 46be a756 46bf cdab 2cbf
000001d0: 77dc 4cbe e7ed 7abe cf09 35bf e392 0abf
000001e0: 95d6 d0be c5f9 aabe d27b 39be ca61 4bbe
000001f0: b6b0 82be 3674 9bbe c256 223e 12f1 aebe
-0.15604958 -0.41863507 -0.4198278 0.13868205 -0.05588558 -0.3202642 -0.2126293 0.26581836
-0.29937828 0.14073178 -0.34749064 -0.6735495 -0.5426438 -0.28193516 -0.5596566 -0.3988267
-0.7330962 -0.17984436 -0.42250118 -0.66342276 -0.70546323 -0.16470285 0.15013126 0.20197015
-0.2003494 0.14852445 -0.22560093 -0.49959078 0.24710333 0.283239 -0.33745083 -0.6952355
-0.40751782 -0.2502187 -0.26198736 -0.14194055 -0.9897193 -0.51402277 0.22022176 0.1533362
-0.36148128 -0.76897913 -0.17717874 -0.68899727 -0.197394 -0.5215255 -0.6297558 0.12770301
-0.36239067 -0.242836 -0.7347525 -0.876486 -0.38107613 0.100107536 -0.88303417 -0.27496696
-0.8053748 0.11801251 -0.5745793 -0.6538694 -0.19842234 -0.32758623 -0.752946 -0.24074629
-0.25239268 -0.17163563 -0.31302598 -0.62042034 -0.37997374 -0.283388 -0.18293042 0.18130131
-0.18199787 -0.59285885 -0.27895918 -0.24465676 -0.78666776 -0.23663469 0.16715376 -0.8409368
-0.70512515 -0.31334618 -0.3058131 -0.2562427 -0.19370745 -0.36048445 -0.5869819 -0.42338678
-0.569403 -0.7057263 -0.59759563 -0.68432647 -0.26983976 -0.31202197 -0.39394522 0.37138006
-0.75719035 -0.35041776 -0.29757604 -0.31839824 -0.22256708 -0.5779534 -0.59551406 0.23834096
-0.25187877 -0.58645004 -0.2569614 -0.34144172 -0.3268824 0.15713349 -0.1785552 0.06540102
-0.49158537 -0.19356169 -0.7747597 -0.6744965 -0.20005976 -0.24504815 -0.7071809 -0.5413038
-0.40788713 -0.33393684 -0.1811364 -0.19861522 -0.25525445 -0.303621 0.15853408 -0.34168297

l2.weight f4 [64, 128]
00000000: 5126 8bbd 2b9d 2ac0 bb0b 76bf c900 163a
00000010: 3287 273c 1e3b 24bf 7cf7 083e 00f9 b0b9
00000020: bbbc 62bf 0ce2 bb3a 4bcd 62be a688 c0bf
00000030: 9348 9fbf 71dd abbd b794 97bf 1936 ffbf
00000040: 2e70 58bf 8fab 27bf a772 ba3c c670 3dbe
00000050: cd32 95bf 9578 9a3d 0870 94ba 4350 efb9
00000060: 3ae5 15bf a4d8 a73b d204 013e 7628 1ec0
00000070: c32b b8b9 11e7 8d3a 8248 8fbf 4832 f2bc
00000080: 35d8 bb3b b30d 073f 3f62 7abf 81bd 37bd
00000090: 67dd 22bf 54b3 08bc f3b6 4c3b 2373 92ba
000000a0: 32b7 1ac0 4f5e 61bf 64c0 38bf c23b 88bf
000000b0: f24e e0bf 273b c7bf 990b 923d 1215 073b
000000c0: 87ea 08c0 e7a1 ef3d 411f 75be 99b3 50be
000000d0: 4280 bebb d20a a93b 17e5 63bf e067 ce3c
000000e0: 43fa 7bbf 6cbb 1c3b 8d42 d5bd 3130 bfbf
000000f0: 2367 31bf d104 debb 63e4 66bf 3897 313d
00000100: 6e2b 7fbd 6041 113e 29fa 59be 5be2 91bf
00000110: f8c6 93be 6511 4ebf 371a 5f3d 140a 7d3b
00000120: 9e03 a7bf 74b5 0fc0 575a 8d3d 3be7 c8bf
00000130: 06d5 8bbb a0d5 c0bc 04ed 1a3b dc34 573e
00000140: b9ea 27bf 9e89 43bd b55a 89bf 5f67 69bf
00000150: 6ba7 b63c c257 71bf 3ef0 c3bf adfc bdbe
00000160: b62a c8bf 85f9 9fbf 2f6c acbd b4d3 adbf
00000170: 8f79 a9bf d015 083d 55fb 96bd fcb1 ba39
00000180: af4b 70bf b43c 56bc fbaa 89bd eaa1 a6bf
00000190: b6e9 8fbf ec7d 2fc0 528e dcbf ea2a 7db9
000001a0: 2119 9dbf 2402 89bf 1730 3ebf f455 b6bf
000001b0: 502d 2f3b d08c bf3a 3e7d 823d 25ac e43b
000001c0: 9749 cfbb e3bd 6f3d f80d 92bf 7abf a4bf
000001d0: 8911 bbbf b91e 91bd c396 e4bf 6993 80bd
000001e0: b71d 7cbd 3b66 77bf 6fd8 8fbf c5c8 853d
000001f0: db41 a4bf 5146 a0bf 845d 4b3a cbac fbbe
00000200: 6775 c93b c34f 3bbf f73a 90bf 0cc3 e33b
00000210: 5958 2bbc 0f22 62bf 124a 483e 1cd3 883a
00000220: 0f5a 61bf cdf8 a839 4477 52bc ba3e 97be
00000230: 9adc 97bf 5a53 1abb 54d3 dcbf f3e9 b5bd
00000240: ad55 61bf 3639 90bf 5eaf 8eba 9e30 f2bc
00000250: f01d 8bbf 6271 2dbd 8eff b93a 7513 203b
00000260: e3f4 0fbf 9ab1 833b 3018 2d3e 91d4 96bf
00000270: 0ff1 d4b9 96ef 55ba 8b2b b2bf bdd1 56bd
00000280: d4ef 1fbd d1f0 d33e 7e8d b2bf 6730 353c
00000290: 0dbc 8fbf e84a efbd 41ea c63a 4c37 33bb
000002a0: 7f80 f8bd 4b57 5fbf a4af 1cbf dfaa dcbf
000002b0: d922 dcbf 0f47 60bf cb3a d93c 0f36 8b3b
000002c0: df44 9cbd a1d2 693e ae78 e4be fe5e b2be
000002d0: bfe4 a4bd 2470 12bb 5c4d b8bf 592e 4abc
000002e0: f306 cfbf 7097 1f3b 2035 093b 7ea1 58bf
000002f0: 8f21 26bf 8d4d 3c3d 7853 23bf 2948 bd3b
00000300: 8265 1ebc f1fb 193e 17ad cbbe ede9 babf
00000310: 881a 07bf 86b0 a8bf 6d67 b1bd cc2b 373b
00000320: 4b8b 8bbf 50e3 f4be c569 0e3e 87f6 9cbf
00000330: a9d5 58be 1c6a 8b3d 97bd 34bb ca6a d7bc
00000340: a984 53bf 95f3 1bbd 7a87 8dbf 0b6c 9fbf
00000350: 6893 25bb 2c6b 52bf 668b ccbf 8bda ffbe
00000360: 3080 ccbf cabc b8bf 772a acbd 67b1 b8bf
00000370: 8df0 cfbf de44 c23b af22 8fbc b102 03ba
00000380: d364 d3bf 7198 66bb 1023 68be f167 b8bf
00000390: 8c2d 8abf f386 19be 08ff 9cbf ec27 8e3a
000003a0: a6ac 94bf 09d9 8abf 804e 2dbf 54a8 01c0
000003b0: c131 4abd b571 ac3b 0396 fa3c e0c4 bd3a
000003c0: 18e7 3abb 78c8 fdbc fdfd d2bf 0ef5 f7bf
000003d0: e252 aebf 7bd3 16be 3fdb b9bf 0ff0 0fbe
000003e0: aa57 56bd 7e83 88bf 4239 7fbf 8f86 b53d
000003f0: c45f b5bf 53c0 95bf 730f adba c477 cdbe
-0.06794418 -2.6658428 -0.9611165 0.0005722163 0.010225104 -0.64152706 0.13375658 -0.00033754855
-0.8856923 0.0014334335 -0.22148626 -1.5041702 -1.2444023 -0.08391846 -1.1842259 -1.9938384
-0.8454617 -0.6549615 0.022759749 -0.18500051 -1.1656128 0.075425304 -0.0011324892 -0.00045645432
-0.58552897 0.005122261 0.12599495 -2.4712195 -0.0003512782 0.001082631 -1.1194003 -0.029564992
0.005732561 0.5275528 -0.9780616 -0.04485846 -0.63619083 -0.008343536 0.0031236976 -0.001117323
-2.4174314 -0.8803453 -0.72168565 -1.0643237 -1.7524092 -1.5564927 0.07131118 0.0020611924
-2.1393144 0.11700802 -0.23937704 -0.20381011 -0.0058136294 0.0051587606 -0.8902144 0.025196016
-0.98428744 0.0023915423 -0.10413084 -1.4936582 -0.69298 -0.0067754765 -0.9019224 0.043357104
-0.062297277 0.14185095 -0.21286835 -1.1397203 -0.2886274 -0.8049529 0.05446836 0.0038610743
-1.3047979 -2.24545 0.069019966 -1.5695566 -0.0042673377 -0.023539364 0.0023639807 0.21016258
-0.65592533 -0.047738664 -1.0730807 -0.91173357 0.022296628 -0.9427453 -1.5307691 -0.3710684
-1.5638034 -1.2498022 -0.08419072 -1.3580232 -1.3240222 0.033223927 -0.073721565 0.00035609293
-0.93865484 -0.013075996 -0.06722065 -1.3018162 -1.1243198 -2.7420607 -1.7230933 -0.00024143947
-1.2273294 -1.0703778 -0.7429213 -1.4244981 0.002672989 0.0014614109 0.06371544 0.006978529
-0.0063259113 0.0585307 -1.1410513 -1.2870934 -1.4614726 -0.07085938 -1.7858509 -0.06278116
-0.061551776 -0.96640366 -1.1237925 0.065324344 -1.2832597 -1.2521459 0.00077577704 -0.49155268
0.0061480287 -0.7316858 -1.1267995 0.0069507416 -0.010458075 -0.8833322 0.19559506 0.0010438892
-0.88028044 0.00032228828 -0.012845818 -0.29540044 -1.1864197 -0.0023548217 -1.7251992 -0.08882513
-0.88021356 -1.1267459 -0.0010886004 -0.029564198 -1.0868511 -0.04234446 0.0014190541 0.002442566
-0.5623304 0.0040189745 0.16903758 -1.178362 -0.00040615394 -0.0008161006 -1.3919538 -0.052446116
-0.039047077 0.41394666 -1.394943 0.011058903 -1.1229264 -0.11684209 0.0015176014 -0.0027346192
-0.12133884 -0.87242573 -0.61205506 -1.7239646 -1.7198135 -0.87608427 0.026517292 0.0042483876
-0.076303236 0.22834255 -0.4462332 -0.34838098 -0.08051442 -0.0022344673 -1.4398608 -0.012340152
-1.6173996 0.0024351738 0.0020936206 -0.8462142 -0.64894956 0.045972396 -0.6379924 0.0057764244
-0.009667756 0.15037514 -0.39780495 -1.4602638 -0.5277486 -1.3178871 -0.08662305 0.002794969
-1.0901884 -0.47829676 0.13907535 -1.2262734 -0.21175255 0.06807348 -0.0027578825 -0.026296038
-0.826243 -0.038074095 -1.1056969 -1.2454847 -0.0025264863 -0.8219478 -1.5980041 -0.49971423
-1.597662 -1.4432614 -0.08406537 -1.4429139 -1.6245285 0.0059286198 -0.017472593 -0.00049976545
-1.6515144 -0.0035186077 -0.22669625 -1.440672 -1.079515 -0.14992885 -1.2265329 0.0010845638
-1.1615188 -1.0847484 -0.67697906 -2.025899 -0.049363855 0.0052625784 0.03058911 0.0014478229
-0.002851909 -0.03097938 -1.6483761 -1.937166 -1.3619044 -0.14729111 -1.4520034 -0.14056419
-0.052329697 -1.0665128 -0.99696743 0.08863556 -1.416985 -1.1699318 -0.0013203457 -0.40130436

l2.bias f4 [64]
00000000: 9380 0b3d 8697 583d 0a63 a73e b9ac a33d
00000010: 4f06 463d c756 183d f6b8 1d3d 2010 2a3d
00000020: cc33 1e3d 1a17 47bb f1f9 bd3a 2bde ae3e
00000030: 0cd8 383d 948f 4dbc 70d0 55bc 3ab6 243d
00000040: 6dba c63d 6e04 01be 1799 303d b138 0f3b
00000050: a350 2a3d 49ed 2f3d 399e 773d e5f4 8dbb
00000060: 0738 be3c 4915 bc3d a626 4f3d 51ed 503d
00000070: 56ee 353d d074 123d ebf2 d93d 937e 273d
00000080: f793 0d3d 1bdb 3d3d 0d88 403d bd12 2d3d
00000090: 5b77 1b3d acf4 243d 0e8c d53a e52d 1eba
000000a0: 9e73 17be d45a 523d 2c2a 083d 97dd 163d
000000b0: 8fdc 5c3d 7aa1 ef3c 7af4 483d 9a9a 3c3d
000000c0: f53c b93a 7583 f03c 6a45 0c3d 1398 423d
000000d0: 5ec5 523d 118d 3d3d 4cc0 053d 0a65 903c
000000e0: 3885 2a3e 1426 c93c 9099 b53c 1739 1c3d
000000f0: 28e5 d53c f021 4a3d 46e9 383d 9fe1 bf3d
0.034058165 0.05287888 0.32692748 0.079919286 0.04834586 0.037192132 0.03850647 0.041519284
0.038623616 -0.003037876 0.0014494044 0.34153876 0.045127913 -0.012546439 -0.013050184 0.040212847
0.09703527 -0.12599346 0.043114748 0.002185386 0.041580807 0.042950902 0.060453627 -0.004332172
0.023220075 0.09183747 0.050573967 0.051007573 0.044416748 0.035755932 0.10642036 0.040892195
0.03456494 0.046351533 0.047004748 0.0422542 0.037955623 0.0402724 0.001629235 -0.00060340605
-0.14790198 0.05135615 0.033243343 0.03683242 0.05392128 0.029251803 0.049061276 0.046045877
0.0014132546 0.029359559 0.034245886 0.04750831 0.051457755 0.04627711 0.03265409 0.017626304
0.16652381 0.02455429 0.02216795 0.038140383 0.026110247 0.04934877 0.045144342 0.09369206

l3.weight f4 [2, 64]
00000000: cea5 903f 7c75 163f f5d3 9cbe 4b96 fcbf
00000010: a150 373f f953 593f 4285 613f c00b 5b3e
00000020: 2eee 9d3e 1689 0ac0 bdb5 c3bf 6daf c1be
00000030: bb5f 403f 3108 f7bf 2031 69bf 7ec9 7e3f
00000040: 5377 28bf 6ad2 c4bd 3ca0 383f 45d8 64bf
00000050: 8099 543f d54c 543f c7b5 86bf ee2c e9bf
00000060: 22cf 16be 6f2c d9bf a5c0 113f 6dc2 0e3f
00000070: 5b6c 4a3f b342 7f3f 852d f2bd 1fd8 4f3f
00000080: d691 3f3e 8b5c 4a3f 3ce2 223f d695 283f
00000090: b5f4 593f 06a0 573f 4918 8bbf e428 83bf
000000a0: 9993 a2b9 308e 2c3f bfd7 a03f 508c e83e
000000b0: 005d 0e3f 7b2e 50bf 8554 1a3f e292 283f
000000c0: de98 81bf 5ce7 f33d 227f a23f 4971 643f
000000d0: c529 1a3f 7822 303f 8c13 663e 8360 42bf
000000e0: 4260 12bf 4fe9 d23f 550b 95bf a5a4 6e3f
000000f0: 9deb d13f d51d 553f 6a91 113f 449a cfbf
00000100: f143 2e3f 413b 293f 34dd bcbe 9003 b1bf
00000110: 878a 233f c2fd 883f 18e6 4f3f cbbd 803f
00000120: 34cf 803f 673f 6fbe 9bb6 d1bf 40d7 03bf
00000130: 64ae 1a3f e6d9 cbbf 5238 eabe 1856 0c3f
00000140: ca57 74bf 919b 28bd 6c5e 683f b59c acbf
00000150: 04d8 663f 92b9 423f f62c 8bbf 541c 23bf
00000160: f9c3 ba3f 0589 aabf fb5c 2d3f 666e 233f
00000170: 2efd 143f f4f4 8a3f 69c0 f9bf 1aa4 783f
00000180: adea 9f3f 6af1 243f c6b0 493f d917 3e3f
00000190: f137 3c3f d8a3 4b3f c0e6 bdbf 1b86 87bf
000001a0: 1639 86bd 95cd 183f 879b b33e 85ee 863f
000001b0: 867a 233f 673e a8bf b6ad 343f 7845 333f
000001c0: bc91 86bf 3128 b83f c6f9 2d3e f0fb ee3e
000001d0: 0394 0f3f d211 153f 754b 953f bd3e 92bf
000001e0: 9798 33bf b796 eb3d fdec adbf 6842 753f
000001f0: 59a8 0f3e 9bb6 da3e b674 483f d5a4 bfbf
1.13006 0.58773017 -0.3063046 -1.9733366 0.71607405 0.8489376 0.8809396 0.21391201
0.3084578 -2.164617 -1.5289837 -0.37829152 0.75146073 -1.9299375 -0.91090584 0.995262
-0.65807074 -0.09610446 0.721195 -0.893925 0.8304672 0.82929736 -1.0524224 -1.8216836
-0.14727452 -1.6966685 0.5693458 0.5576542 0.7907159 0.9971115 -0.118250884 0.8118915
0.18707976 0.7904746 0.63626456 0.6585363 0.8513902 0.8422855 -1.0866786 -1.0246854
-0.00031009017 0.6740446 1.256584 0.4541955 0.55610657 -0.81320924 0.60285217 0.65849125
-1.0124776 0.11909363 1.2695048 0.8923536 0.60219985 0.68802595 0.22468394 -0.75928515
-0.5717813 1.647745 -1.1644083 0.9321998 1.6400028 0.83248645 0.5686251 -1.6218953
0.6807242 0.6610604 -0.36887515 -1.3829212 0.6388325 1.0702441 0.8121047 1.005792
1.0063233 -0.2336403 -1.6383852 -0.5150032 0.6042235 -1.5925872 -0.45746094 0.5481887
-0.95446455 -0.041163985 0.90769076 -1.3485323 0.90173364 0.7606441 -1.0873096 -0.637151
1.4591056 -1.3323065 0.6772 0.6384033 0.5819882 1.0856004 -1.9511844 0.971254
1.2493492 0.6443087 0.7878536 0.7425514 0.7352286 0.7954688 -1.4836044 -1.0587801
-0.06553857 0.59688693 0.35079595 1.054154 0.6385883 -1.3144044 0.7057756 0.70027876
-1.0513225 1.4387265 0.16989812 0.46676588 0.5608522 0.58230317 1.1663653 -1.1425396
-0.7015471 0.11503356 -1.3587948 0.9580445 0.14029063 0.42717442 0.78303087 -1.4972178

l3.bias f4 [2]
00000000: 018f 0d41 fbe5 0c41
8.847413 8.806148
